Homework1/model.pth (torch, 439367 bytes, 6 tensors)

fc1.weight f4 [128, 784]
000000 04 66 52 3c 50 ba 33 3c 48 4a 10 bd f4 0a 2b 3c
       0.012841705 0.010969713 -0.03522709 0.010439623
000010 e8 d8 b9 3b dc 6d 57 bc 58 1e 33 3c 45 88 eb bc
       0.005671609 -0.013148751 0.0109325275 -0.028751502
000020 1a 20 ee 3c b0 93 3a bb 3e e8 0d bd 60 36 00 bb
       0.029068042 -0.0028469376 -0.03464531 -0.001956366
000030 00 c5 b6 bb c0 5c a7 bb 2e 1f c4 bc b8 00 c0 bc
       -0.0055776834 -0.005107492 -0.023940649 -0.023437843
000040 55 9d fb bc 40 ee e4 3a dc dd a1 3c 90 7e 37 3b
       -0.03071467 0.0017466024 0.019759111 0.002799902
000050 0a 1c 44 bc d2 82 d9 3c f4 77 30 3c 20 8c 6d bb
       -0.011969576 0.026551638 0.010770787 -0.003624685
000060 9e 97 f2 bc ee 47 ac 3c 38 76 ab bb 9c 63 21 3c
       -0.029613312 0.021030392 -0.0052325986 0.009850409
000070 8e a3 fc 3c 46 91 c7 3c 08 66 f8 3b e5 07 a2 bc
       0.030839708 0.024361264 0.0075805224 -0.019779155
000080 e4 f5 1d 3c 6a 6f 80 be 89 a3 94 be 65 92 8c be
       0.009641144 -0.25085002 -0.29031017 -0.2745544
000090 48 de 83 be 27 43 75 be a8 b3 67 3e de 46 e7 3e
       -0.25755525 -0.23951398 0.22627127 0.45171255
0000a0 23 77 df 3e 7a 62 b3 3e dc 99 14 3e 2d 07 27 3e
       0.43645582 0.3503607 0.14511818 0.16311331
0000b0 0b bf 18 be 31 a7 7b bd 46 32 24 3e 32 ab 31 3c
       -0.14916627 -0.061438743 0.16034803 0.010844039
0000c0 2c 4c a7 bc f0 4d 3e bb de 92 fd bc 12 64 62 bc
       -0.020422064 -0.0029038154 -0.03095382 -0.013817804
0000d0 78 89 5c 3c d8 bc ab 3c ea 17 fc 3c 9c 0c 52 bc
       0.0134605095 0.020964071 0.030773122 -0.012820389
0000e0 12 49 43 bc 94 08 94 bb d2 76 03 bc 4e 33 56 bc
       -0.011919277 -0.004517624 -0.008023934 -0.013073755
0000f0 62 c8 ca 3c 78 65 73 be db a3 19 be 39 b9 ff 3c
       0.024753753 -0.23769176 -0.15003912 0.03121625
000100 3f 80 39 bd 33 f3 4d 3e fc 14 52 3d dd 6d a5 3e
       -0.04528832 0.20112304 0.051289544 0.32310382
000110 97 59 d3 3e 44 b5 e2 3e ea 14 0a 3e ee cf 06 be
       0.4127929 0.4427892 0.1348454 -0.13165256
000120 8a f0 c6 bd 54 9d 3a 3e 5a 9e f6 3e e0 7f 8d 3e
       -0.09713848 0.18224078 0.48167688 0.27636623
000130 6e a0 9a 3e 6f 5d b0 3e f7 03 d1 3e 59 d3 84 3e
       0.30200523 0.34446284 0.40823337 0.25942495
000140 ed bf 87 3d 9a 79 fc bc 00 c5 6a 3b 18 6b 2a 3c
       0.06628404 -0.030819703 0.0035822988 0.01040151
000150 2e e9 dc 3c 80 8e 0b bc b0 29 3f 3c c7 ce 0c 3d
       0.026966657 -0.008517861 0.011667654 0.034376886
000160 e5 20 de 3d a3 e9 ba 3e dc eb e8 3e 8f 7c f3 3e
       0.10846118 0.36506376 0.45492446 0.47555968
000170 ec 5f 56 bd 5a 4d 77 3e df cd 7e 3d 2e 00 2d 3d
       -0.052337572 0.24150601 0.062208053 0.0422365
000180 65 1a ad bd f5 f1 2d be 8b d6 18 3e 40 bf c1 3d
       -0.084523 -0.1698683 0.14925592 0.09460306
000190 7a 63 78 3e 11 33 36 bd 00 e0 d8 3d db 62 cb 3d
       0.24256697 -0.044482294 0.105895996 0.099309646
0001a0 59 19 be 3e 19 64 14 3f 4b bf 05 3f 16 42 58 3d
       0.37128714 0.57965237 0.52245015 0.0527974
0001b0 30 67 2f be 04 57 df 3e 29 d0 a8 3d 83 86 00 3d
       -0.17129207 0.43621075 0.082428284 0.03137828
0001c0 4a 8a 03 bd 80 4e 61 3a 5e cc eb bc 87 97 97 3d
       -0.032114305 0.0008594766 -0.028783973 0.074019484
0001d0 4f 8b 62 bd 1d df 81 3e 45 5c 90 be 83 67 24 bf
       -0.055308636 0.25365534 -0.28195396 -0.64220446
0001e0 f2 75 61 bf 52 8a 86 be b4 60 1a be 6e dd 72 bd
       -0.88070595 -0.26277405 -0.15075952 -0.059293203
0001f0 52 63 08 be 0c 12 16 3c 6b 50 d7 bd c6 bc 93 3d
       -0.13319138 0.009159576 -0.105133854 0.0721374
000200 44 95 c3 3e e1 23 4f bc 43 67 75 be 79 c9 0e 3e
       0.38199818 -0.012642832 -0.23965172 0.13944043
000210 23 2e a6 3e 75 57 0a 3f b4 46 bf 3e 2b ee c4 3d
       0.32457075 0.540397 0.3735863 0.096157394
000220 85 bb f1 bd e5 c7 a5 bd bf 78 99 be 58 18 af 3b
       -0.11803345 -0.080947675 -0.29974934 0.005343478
000230 70 af d6 3b 3a 08 91 3c 80 42 5c 3d 25 4d d0 3d
       0.0065516755 0.017704118 0.053774357 0.10170964
000240 63 70 73 3e dc 57 10 3e cb 34 85 be 96 09 b4 be
       0.23773341 0.14096016 -0.2601684 -0.35163563
000250 09 5a 0e bf d2 7e bc be df 75 90 be 19 88 38 3e
       -0.5560613 -0.36815506 -0.28214929 0.18020667
000260 0a 35 bd be 12 a4 36 bf 0a ad 00 bf 86 ce 28 3e
       -0.36954528 -0.713441 -0.50264037 0.16485032
000270 12 b6 74 3e 48 33 44 bd 1b 6c 96 be b8 92 9b 3e
       0.2389758 -0.047900468 -0.29379353 0.30385375
000280 0f 53 a0 3e 6e e5 15 3f 56 79 85 3e 1d 34 00 3d
       0.3131337 0.58553207 0.26069134 0.0312997
000290 87 77 8b bd b2 8f 84 be 4a 17 b8 be b2 0c 1c bc
       -0.068099074 -0.2589088 -0.35955268 -0.009524511
0002a0 dc 39 9b bb bc f9 72 bc 47 54 1d 3d a5 39 9e bd
       -0.004737122 -0.014830049 0.03841045 -0.077258386
0002b0 0e 2c 04 3e 54 e2 f9 bd 7a 32 66 be 4b dc 80 3d
       0.1290743 -0.12201372 -0.22480193 0.062920175
0002c0 f6 62 61 3e 03 c9 b1 bd cb 24 2b bd 62 9d b3 be
       0.22010407 -0.08680918 -0.041783135 -0.3508101
0002d0 fe 41 20 bf ca 87 32 bf 0d a0 f8 be 19 34 87 be
       -0.62600696 -0.6973845 -0.4855961 -0.26406935
0002e0 6b 2b 92 be f7 c2 cd be 10 8b 45 be a7 59 49 3e
       -0.2854875 -0.4018781 -0.1929133 0.19663106
0002f0 1d b6 86 3e cc 44 1a 3e a8 2f 0b be 28 98 b8 3e
       0.26310816 0.15065306 -0.13592398 0.36053586
000300 09 37 4f 3f e2 db c4 3e b9 34 c9 be b6 ba 85 be
       0.8094335 0.38449007 -0.39298037 -0.26119012
000310 78 25 f9 bb 80 dc 6d 3c 29 dd 4d 3d 99 1a 31 be
       -0.0076033436 0.014517903 0.050259743 -0.17295302
000320 50 2a ef be 4c 27 94 be fd 47 5b be 20 7e 18 3c
       -0.4671197 -0.2893623 -0.2141418 0.009307414
000330 48 d6 2a 3c 82 c5 85 be 77 a2 a6 3d 1a 64 be be
       0.010427065 -0.2612725 0.081364565 -0.37185746
000340 57 0c 90 be 16 ba d4 be 05 44 92 be b2 85 49 bc
       -0.28134415 -0.41548222 -0.2856752 -0.012299942
000350 12 ac 87 be dd f6 21 bf 42 29 8d be 96 d4 3e b9
       -0.26498467 -0.6326731 -0.2757054 -0.00018199006
000360 a0 17 2e be fd 7e 5a be aa 2a e6 be 4c f2 a3 3e
       -0.170012 -0.21337505 -0.44954425 0.32020795
000370 cf 87 7b 3f f4 ce b0 3e d7 07 c0 be a2 4f 5a be
       0.982541 0.34532893 -0.3750598 -0.2131944
000380 fc 47 be 3c ca 67 83 3c 9e dc e5 bb 64 70 b7 be
       0.023227684 0.016040701 -0.007014825 -0.35827935
000390 d4 ef ed be fa c2 12 be bf b3 74 bd 3d dc 40 3c
       -0.46472037 -0.1433219 -0.05974173 0.011771259
0003a0 34 c0 e8 bd 5e f0 e5 bd 76 23 7d 3d ac 58 a5 be
       -0.11364785 -0.11227487 0.061801396 -0.32294214
0003b0 42 45 fb bd 34 99 86 be ca 92 9b be 2f 62 89 bd
       -0.12269069 -0.2628876 -0.3038543 -0.0670818
0003c0 f6 07 b2 bd 76 54 45 be c3 71 68 be 3a 79 43 be
       -0.08692925 -0.192705 -0.22699647 -0.19089213
0003d0 77 0a a0 be d1 af 34 be c9 12 3f be 88 97 d1 3e
       -0.31257984 -0.17645194 -0.1865951 0.40935922
0003e0 dd 9c 3b 3f 4d ea ac 3c 63 5f a3 be fd dd bc be
       0.7328623 0.021107817 -0.31908712 -0.36888114
0003f0 af 83 0d bd 2d 75 94 3d 65 0f 88 3d 38 eb 46 3d
       -0.03454941 0.07248912 0.06643561 0.048564166

fc1.bias f4 [128]
000000 c6 fe 02 bd 7b 16 9a bc 27 12 7c 3e a4 3c 7f bd
       -0.031981252 -0.018809548 0.246163 -0.06231369
000010 1b f3 b1 bd e5 49 15 3d 97 a3 8c 3d 33 5c ab be
       -0.08688947 0.036447424 0.0686714 -0.3346878
000020 4a 46 f1 3c 12 b3 1d bd 1a 3f 05 bd 65 18 a1 bc
       0.029452462 -0.038500853 -0.03253088 -0.019664953
000030 1e 65 8a 3c 63 04 16 bd a5 40 e3 3c 68 c5 0b be
       0.01689392 -0.036625277 0.027740786 -0.13649523
000040 5c 7f 45 3e 81 5d fb bd 89 42 7f be d3 55 f5 bc
       0.19286865 -0.12273694 -0.24927725 -0.02994815
000050 aa 98 bd bc 33 e8 dc be 09 9d fa bd 49 c8 b3 be
       -0.023144085 -0.43145904 -0.12236983 -0.35113743
000060 ba 51 7b be 0b 8b 24 be 88 07 26 3e 1c 6f 8c bd
       -0.24542895 -0.16068666 0.1621381 -0.0685713
000070 39 de fb be a6 e2 b0 bc 3c 7b 13 3a 72 81 b2 be
       -0.4919298 -0.02159245 0.00056259683 -0.34864384
000080 8b 76 0e ba 0f 8c 86 bc 3c c8 7d be 6c dc 99 be
       -0.00054345344 -0.016424207 -0.24783415 -0.3005098
000090 95 0d 9a be 48 fc 1b bd 0f 5c 33 bd c5 24 0d 3e
       -0.30088487 -0.03808239 -0.043788966 0.13783558
0000a0 9c 2d 2f bd c5 4b 0c be ab 75 a7 be b1 6a 5c 3d
       -0.042768106 -0.13700779 -0.3270696 0.053812686
0000b0 87 94 f2 bd 20 b9 82 bd 0d c9 57 bc 7e 90 82 3d
       -0.118447356 -0.06382966 -0.013170493 0.06375216
0000c0 cf 57 90 3e 5b 41 01 bf e7 9a d7 be b5 2d bc be
       0.28191993 -0.5049035 -0.4211037 -0.36753622
0000d0 cb 1b 2d 3c ee 12 4d 3c f9 01 10 bf 03 be 8a bc
       0.010565708 0.01251672 -0.5625301 -0.016936308
0000e0 27 dd d5 bc 29 4c 42 bb 65 8a bf 3d 4a bc b2 be
       -0.02610643 -0.0029647446 0.093525685 -0.34909278
0000f0 1b 1c 97 be 16 17 35 bd ac 8a 20 ba d4 28 e6 bc
       -0.2951363 -0.04421147 -0.00061241793 -0.02809564
000100 d7 9a d9 be 58 af bd be 85 7c b5 bb 30 43 09 bf
       -0.42500946 -0.3704784 -0.0055385255 -0.53618145
000110 53 29 48 bb 7c cb 04 bf c9 cc 59 bd 64 94 c1 bc
       -0.003054221 -0.5187299 -0.053173814 -0.023630328
000120 57 48 72 bd ed d1 1e 3e 77 d7 12 bf a3 e5 59 3d
       -0.05915102 0.15509768 -0.57360023 0.053197514
000130 24 86 81 be 34 0a 24 3d a8 04 9a 39 a3 9f 6a be
       -0.25297654 0.040048793 0.00029376638 -0.22912459
000140 42 5b fd bd 09 0b f8 be 54 ab 29 3e a9 8f e1 bd
       -0.12370922 -0.4844592 0.16569263 -0.11013729
000150 8f 0c 49 be 70 e8 f4 be eb 00 2b 3e 94 55 b9 bd
       -0.19633697 -0.47833586 0.16699569 -0.09049526
000160 19 c0 23 3d 04 ac b9 be 8a b8 f0 bd 7c e1 bc bb
       0.03997812 -0.3626405 -0.11753948 -0.0057641845
000170 55 a5 e0 bc 64 53 d2 bd dd 80 09 be bb 16 ed bd
       -0.027422586 -0.10269812 -0.13428064 -0.11576601
000180 cd 95 b2 be 14 f3 e9 bc 51 79 57 be e7 46 2a be
       -0.34879914 -0.028558291 -0.21042372 -0.1662861
000190 d5 bb e3 be 74 4c 55 bd 3f ac b6 bd 2b 2c 66 3c
       -0.44479242 -0.052074865 -0.08919572 0.014048616
0001a0 41 0f de be b0 08 8a 3c 17 5b 03 bd 24 f3 c6 bd
       -0.43371013 0.016849846 -0.032069292 -0.09714344
0001b0 73 00 59 bd 8d da 39 be 1d a6 0e bd aa d3 26 bd
       -0.052978944 -0.18149777 -0.034826387 -0.040729202
0001c0 69 4e 4d bd 56 38 ef bc 7e c8 6b be fb 75 bc be
       -0.050123606 -0.029201668 -0.230257 -0.36808762
0001d0 c7 86 f2 be 85 39 c2 bb 1d 96 2f bd 86 1c 23 3e
       -0.47368452 -0.005927267 -0.04286777 0.1592885
0001e0 ab b4 c3 bd 47 00 95 3c 03 98 88 be a2 80 98 be
       -0.09555944 0.018188609 -0.26678476 -0.2978564
0001f0 d1 08 db be 4d 7d ae be 6b f0 c1 be 77 79 a1 bd
       -0.42780164 -0.34079972 -0.37878737 -0.07884496

fc2.weight f4 [64, 128]
000000 8c ca 96 bc 40 66 60 bd 38 38 ac 3e 65 33 33 be
       -0.018407129 -0.054785013 0.33636642 -0.17500074
000010 e5 a4 70 3e 95 20 2f 3e dd 8a 35 bf 9c 41 75 be
       0.23500402 0.17102273 -0.70915014 -0.23950809
000020 89 38 bf 3d 72 11 d2 3e 0e c5 52 3d e8 da 5b bc
       0.09336955 0.41028935 0.051457457 -0.013418891
000030 7c a7 02 3e 08 0f 07 3e 3c cf 7b be 15 0c 3f bf
       0.12759203 0.13189328 -0.24590772 -0.7462781
000040 24 6f 83 3e 30 7f 84 be 04 9f 36 3e a8 49 ef 3c
       0.2567073 -0.25878286 0.17834097 0.029209927
000050 c0 5e a8 3c 45 d4 cd be e0 53 0f be aa bf 42 3e
       0.020552993 -0.4020101 -0.1399684 0.19018427
000060 4d ef 65 3d 05 4d 01 be c8 c0 01 bf 3d f9 94 be
       0.056136418 -0.12627037 -0.50684786 -0.29096404
000070 8d e5 96 3e e2 e0 77 3d 79 e2 91 be 07 cc 06 3c
       0.29472008 0.0605172 -0.28493097 0.008227355
000080 43 27 89 3d 20 dd 6d bc 24 8e 9f 3e cb 5f 55 be
       0.06696942 -0.014518052 0.31163132 -0.20837323
000090 00 8a de be 9c 9b ac bd 4d a1 98 3d 8d 99 b9 3e
       -0.4346466 -0.08428118 0.07452641 0.36249962
0000a0 73 79 a2 3d d6 72 62 bd a4 1e fe be 5d 4a 5d be
       0.07933321 -0.055285297 -0.49632752 -0.21610399
0000b0 af 14 47 3e c2 0d 46 3d 33 35 27 be 98 5e 0a 3f
       0.19441484 0.048352964 -0.16328888 0.5405059
0000c0 7f 22 49 3f b7 1b ad 3e ee 74 fe be be 2a 1f be
       0.7856826 0.33810207 -0.49698585 -0.15543649
0000d0 5d 9d 08 3f bb df b1 bd e2 d0 ac 3e df 89 9e 3d
       0.5336512 -0.08685251 0.33753115 0.077411406
0000e0 20 24 eb 3c 69 70 ba bd 23 8b 0f 3e b8 2b ec bd
       0.02870375 -0.09103472 0.1401792 -0.11531776
0000f0 ec 56 7f 3e 9f a2 64 bd 45 23 cd 3d e3 56 4a bd
       0.24935502 -0.05581915 0.10016493 -0.049399268
000100 57 9f c6 be 89 45 0f be 50 eb 1d 3c 10 70 27 3e
       -0.38793442 -0.1399137 0.009638622 0.16351342
000110 85 3f d8 bd 13 4c 0f bf d2 b5 48 3d 0b c0 28 bf
       -0.105589904 -0.55975455 0.049001522 -0.65918034
000120 2d 74 90 bd 6c 74 85 be 46 db 47 3e 92 68 8a bd
       -0.07053409 -0.26065385 0.1951724 -0.067582265
000130 03 7e d9 3e 83 74 85 3c 77 45 93 bd ca fe 43 be
       0.42478952 0.016290909 -0.07190984 -0.19140163
000140 2e c9 45 be ee 19 90 3d 1f de c9 be 4f 36 f6 be
       -0.19315025 0.07036196 -0.39427277 -0.4808831
000150 ac 27 a9 bd 81 d2 4e 3c d7 e5 38 be d2 f7 ad be
       -0.0825952 0.01262343 -0.18056427 -0.33978134
000160 49 a9 c9 3e 0e cb 57 3e 9b cc f5 bd 4a e8 fb bc
       0.39386967 0.21073553 -0.12001916 -0.030750412
000170 94 1c b5 3c 6f 61 8a 3d 46 59 de bd 32 73 4d 3e
       0.022108354 0.06756865 -0.10856871 0.20063475
000180 f0 26 3b bc 6b 86 f2 be 7c eb 56 bd 69 7e 55 3d
       -0.011422858 -0.47368178 -0.05247067 0.052122507
000190 72 51 4f 3e 28 1d 09 bf 6b 49 ae be de 63 d2 be
       0.20245913 -0.53560114 -0.34040388 -0.41091818
0001a0 9e 7b 7b bd f1 00 97 3e 45 19 a3 bd a5 69 f0 3e
       -0.061397187 0.29492906 -0.07963804 0.469556
0001b0 1f 77 5b 3e 11 c1 1a bc b7 a9 ea 3d d2 e2 7e 3d
       0.2143216 -0.009445445 0.11458152 0.06222803
0001c0 65 7a 05 3e 9c d4 0f 3d fa 5a d0 bd 6c 68 0b 3e
       0.13034971 0.03511487 -0.101736024 0.13614053
0001d0 b5 c7 e6 3d 5a 81 20 3d c3 55 89 3e bf ae 80 3c
       0.1126856 0.03918586 0.26823243 0.015708325
0001e0 6b 09 24 be bf 14 89 3d 7e 22 50 3d 3f 54 e2 3c
       -0.16019218 0.0669341 0.050814144 0.027628062
0001f0 ad 35 de be 31 3e 65 bd 67 b8 c5 bc e7 fc 17 bd
       -0.43400326 -0.055967513 -0.024135781 -0.03710642
000200 8d 88 0f 3d 25 2c 12 bd 5e ce 9d 3e 9a 6d 5d be
       0.035042334 -0.03568663 0.30821508 -0.21623841
000210 5b 4e 18 3e 5e 8e 0f bd aa e4 45 3e 58 10 89 be
       0.1487364 -0.03504788 0.1932551 -0.26770282
000220 6d 73 d2 3d 27 1b 89 3e 07 05 e7 bd f3 82 c7 3c
       0.10275922 0.26778528 -0.11280256 0.024354434
000230 39 a8 cc 3c 42 f2 9f be 58 7a ef 3e 5b 68 8a 3e
       0.024982559 -0.31239516 0.46773028 0.27032742
000240 55 1b d2 be 4c 64 01 bf 12 c8 50 be 75 cc 58 bd
       -0.41036478 -0.50543666 -0.20388821 -0.05292936
000250 21 cf 92 bd eb ea 3d 3f b0 68 ab 3e ac 57 d6 be
       -0.07168413 0.7418658 0.33478308 -0.41863763
000260 8d c2 9b be 8a f0 bc 3e 6f e1 30 3f c3 51 91 3e
       -0.30421868 0.36902267 0.69093984 0.28382692
000270 37 1f 55 be 49 4d aa 3c c0 50 01 3e fa 24 23 be
       -0.20812689 0.020788806 0.1262846 -0.15932074
000280 b1 cf e8 bc 4a eb 58 bd 51 8c 26 3c bf d3 5c be
       -0.028419347 -0.052958764 0.01016529 -0.2156515
000290 24 66 68 be 40 9f a6 3c 39 2a 90 3d c6 70 98 bd
       -0.22695214 0.020339608 0.07039303 -0.07443385
0002a0 98 d8 7c bd 51 65 85 bd 19 4d 00 3e af 25 0d be
       -0.061729997 -0.06513465 0.1252941 -0.13783906
0002b0 3c 66 f8 3d 48 cb 59 bd 0e b9 de 3e 62 9e e2 3d
       0.12128875 -0.05317238 0.4350056 0.110653654
0002c0 da c3 f1 3d 4d 93 50 be e4 cc 40 3e 8f 33 91 3c
       0.11804934 -0.20368691 0.1882816 0.01772478
0002d0 b7 db 23 be 57 c0 a9 bd 8e 1a 23 be 43 b9 98 3d
       -0.16001783 -0.08288639 -0.15928099 0.07457211
0002e0 77 4f 3a bd 91 43 7b be 42 5d c6 be 56 83 13 3d
       -0.04548594 -0.24537493 -0.38743025 0.036013924
0002f0 ab f1 1b 3e 00 55 d6 3c 19 ae fd be 56 2b 77 3d
       0.15228908 0.026163578 -0.49546888 0.060344063
000300 ba 26 2d 3e 64 f0 4b be e6 e3 61 3d 61 fb 6f 3e
       0.16909304 -0.1991592 0.05514898 0.23435737
000310 f7 0b d9 3d 76 4c 5f 3e 9c 5f 1b 3c 5f 21 d8 bd
       0.10597985 0.21806511 0.009483244 -0.1055324
000320 80 db c4 bb 33 3f 49 3f 02 c4 a9 bc dc d6 58 3e
       -0.0060076118 0.7861206 -0.020723347 0.21175712
000330 77 2d 45 3e 1e d3 06 bf 36 34 87 3d 1c a0 e1 bd
       0.19255625 -0.5266589 0.06601755 -0.110168666
000340 07 32 f1 3d 89 e1 b9 be d4 17 15 3f 41 bd 85 be
       0.1177712 -0.36304882 0.58239484 -0.26120952
000350 de dd 3d be c9 ea 03 bf 8f b1 e6 3e 28 bd 5f 3e
       -0.18541667 -0.5153013 0.4505734 0.21849501
000360 e2 4c 91 bc 9e 87 43 be e5 45 68 3e 97 8c 17 bc
       -0.017736856 -0.19094703 0.22682913 -0.009249828
000370 ce 85 7c 3d 00 59 06 bf f3 25 6e 3d 21 43 b1 bb
       0.061651044 -0.52479553 0.05814166 -0.0054096137
000380 a6 64 a2 3e 3b c8 e2 3d 40 1d 14 3e 02 3c e2 bd
       0.31717414 0.11073347 0.14464283 -0.11046602
000390 73 0d 32 be f7 b2 7f 3e 82 f7 65 be 9c f1 fa 3e
       -0.17387943 0.24970613 -0.22457698 0.49012458
0003a0 bb 1b 80 3e 60 74 9b 3e a7 d9 1a bd 6f aa 35 be
       0.25021157 0.30362225 -0.037805226 -0.17740797
0003b0 ed 21 4f 3e 67 8c e4 bd c1 e0 93 3e 8c f0 8e bc
       0.20227785 -0.11159592 0.2888241 -0.017448686
0003c0 3a f3 0f 3d eb cf fe bc 3d cc bf bb 5e 86 91 bd
       0.03514407 -0.031105002 -0.0058532045 -0.07105707
0003d0 42 1f 80 bd dd 94 43 bd 6a ee 09 be e2 ee 15 be
       -0.06255962 -0.04774939 -0.13469854 -0.14641908
0003e0 be 77 31 bf 14 52 6b 3c 91 31 2e 3d bf 00 b8 be
       -0.6932334 0.014362831 0.04252774 -0.3593807
0003f0 f6 16 55 3e 03 ed 03 bf 14 f7 8c 3e b7 f2 09 bf
       0.2080954 -0.51533526 0.27532256 -0.5388598

fc2.bias f4 [64]
000000 3b c1 93 be 48 3a 8f ba a9 94 c6 be 9a 20 2b bc
       -0.2885836 -0.0010927403 -0.38785294 -0.010444785
000010 f0 b9 df be 50 3a 80 be 7e 04 b0 be e9 8b f2 be
       -0.43696547 -0.2504449 -0.34378427 -0.47372368
000020 23 e1 ae bd 8e 24 17 be 6d a3 cf be 9a f8 b1 be
       -0.08539035 -0.14760038 -0.4055437 -0.3475998
000030 0f fc 25 bf 2f ad e6 be 65 cc 1c be 1c 7b 2a bf
       -0.64837736 -0.45054004 -0.15312345 -0.665941
000040 eb 48 aa be 2d c7 d2 be 5a f4 ab bc b2 96 28 bf
       -0.33258757 -0.41167584 -0.02099054 -0.6585494
000050 25 53 91 be 94 ba 99 be 08 63 0b bf 3a 3c ba 3e
       -0.28383747 -0.3002516 -0.54447985 0.36374074
000060 3c 5d 4e bf f2 9a 96 bd ae 4b df be 49 64 22 bf
       -0.80611014 -0.07353772 -0.43612427 -0.63434273
000070 c8 60 11 bf 54 38 c4 bd 76 38 a9 be 0f 69 19 bf
       -0.567883 -0.09581056 -0.3305089 -0.5992593
000080 e7 45 48 3c 63 9f 27 bb 06 5e 37 bf f4 99 09 bf
       0.012223697 -0.002557718 -0.71627843 -0.5375054
000090 02 81 85 be d5 65 c1 be 86 33 16 bf 25 84 0c bf
       -0.26074988 -0.37773004 -0.5867237 -0.54889137
0000a0 4a 27 1c bf 05 16 a0 bd 59 a8 14 be f4 1b ee be
       -0.6099745 -0.078167 -0.14517345 -0.46505702
0000b0 22 73 8b be 62 79 89 be 95 4b b1 be 22 04 e3 be
       -0.27236277 -0.2685042 -0.34627977 -0.4433909
0000c0 01 15 59 bf 34 16 68 bd 34 42 d5 be 2e df df be
       -0.84797674 -0.0566618 -0.4165207 -0.4372496
0000d0 7c ce 19 bf 90 1d 56 3c 80 d7 9e be 50 ea eb 3a
       -0.60080695 0.013068572 -0.31023788 0.0017998908
0000e0 e7 36 ad bd f8 c8 f4 bc ab 8d e8 be 58 61 b7 be
       -0.084577374 -0.029880986 -0.45420584 -0.35816455
0000f0 3c 8e b0 be 52 c9 a9 be 2e b2 8b be 6e 14 8b be
       -0.34483516 -0.33161408 -0.27284378 -0.27164024

fc3.weight f4 [10, 64]
000000 e6 e9 82 bd da 58 22 bf 74 43 c7 be 81 29 48 bf
       -0.06392269 -0.63416827 -0.3891865 -0.7818833
000010 87 5d 3d bf a6 a2 06 bf 07 38 02 bd 7b d7 a1 3e
       -0.73970836 -0.5259193 -0.031791713 0.3160971
000020 0d df 19 bf 34 bd 4c bf c9 a1 a2 be f4 4f 08 bf
       -0.60105973 -0.799762 -0.31764057 -0.53247
000030 93 34 f2 bd 04 3e 68 bc 82 a8 11 bd 7c 4d 58 bf
       -0.11826434 -0.014174942 -0.035561092 -0.8449323
000040 6b e8 52 bf 3c 01 ec 3d 11 75 4c 3c 9c 46 af be
       -0.8238589 0.11523673 0.012479083 -0.34233558
000050 7d 78 29 bf 14 40 bf 3d 19 6a 3f bf 38 c0 bf 3d
       -0.66199476 0.09338394 -0.7477127 0.09362835
000060 c0 70 a6 bd 4c 54 8b bf 76 6d 42 bf 8b 6e e7 be
       -0.08126974 -1.08851 -0.75948274 -0.45201525
000070 ff 7c 11 bf 70 5c f9 bd 8b 30 bb bd 56 7f 5c bf
       -0.56831354 -0.12175834 -0.09140118 -0.861318
000080 67 a9 ef bf 27 d8 4d bf 26 02 02 bf 7e 9b 33 bf
       -1.8723572 -0.8040795 -0.5078453 -0.7015914
000090 5f 2c ce 3c 62 fe d0 be 2d 81 62 3d 20 4a 2d bf
       0.025167642 -0.4081908 0.055298973 -0.6769123
0000a0 3d 16 74 3e ef d2 49 be 75 94 bf bd e7 09 a1 bd
       0.23836608 -0.19709371 -0.09354488 -0.07863217
0000b0 36 de 5d bf c1 4d e2 be 7d 67 c2 3d f0 84 9b bd
       -0.8666719 -0.44199947 0.09492395 -0.07593715
0000c0 a8 37 7a be d7 d8 71 be 6f e6 95 ba db 1b 34 bf
       -0.24435294 -0.23617874 -0.0011436472 -0.70355004
0000d0 b5 07 9c 3d 72 88 8e bf 59 78 c1 3c 72 cc 8f bd
       0.076186575 -1.113539 0.023616957 -0.07021417
0000e0 50 44 85 be e1 bb 2f bf 65 3a 43 bf 18 79 d8 3d
       -0.2602868 -0.68646055 -0.7626098 0.10569972
0000f0 0e f1 61 bf ac 96 ac be 13 49 1a bf 1e f1 1f be
       -0.88258445 -0.33708704 -0.6026775 -0.15619323
000100 fc 5c 35 bf ac 40 07 bf 81 c8 a4 be 5a 59 7b bf
       -0.7084501 -0.52833056 -0.32184222 -0.98183215
000110 20 c6 84 bd 05 27 b2 be b7 af 0c bf ce 99 d7 bf
       -0.06483102 -0.34795395 -0.5495562 -1.6843812
000120 e3 4f 46 bf 34 97 e6 be 33 e6 d7 be dc cd 72 bf
       -0.7746565 -0.45037234 -0.42167816 -0.94845366
000130 b2 91 14 bf 95 b5 3b bf cb 3f 05 be cb 73 90 3d
       -0.58034813 -0.7332395 -0.13012616 0.07053336
000140 9f f5 90 bd 56 8a 8c bf 2f 01 8d bf 10 6b 5e be
       -0.070780985 -1.0979717 -1.1015986 -0.21720529
000150 ec 23 f2 be c7 ea 26 bf f5 75 d4 be 1d 31 29 be
       -0.4729303 -0.6520199 -0.41496244 -0.16522641
000160 42 66 d7 be c7 ba 97 bf 77 b2 43 bf aa f8 46 3e
       -0.42070204 -1.1853875 -0.7644419 0.19430795
000170 b3 c5 f5 be 56 16 36 3d dc 69 66 bf 3a a3 14 3e
       -0.48002395 0.044454895 -0.9000528 0.14515391
000180 ab bc 34 3e 11 63 72 bf 4c 4b 60 bf 03 e4 bc 3d
       0.17650096 -0.94682413 -0.87614894 0.09223177
000190 7b ae c0 bf c8 ae 4e bf a7 25 4d bf 63 0e df 3d
       -1.5053247 -0.80735445 -0.8013558 0.10891416
0001a0 9a a2 c2 bf 70 50 86 bf 8a 94 e1 bf 8c ae 4f bf
       -1.5205872 -1.0493298 -1.7623456 -0.8112571
0001b0 9b b2 14 3c 47 05 01 bf 26 a4 a2 bf 3d e2 0b 3e
       0.009075786 -0.5039868 -1.2706344 0.13660522
0001c0 18 10 30 3e eb 1b 82 be 09 17 89 bf 14 c3 bc 3d
       0.1719364 -0.25411925 -1.0710155 0.09216896
0001d0 10 84 d3 be 9d b5 39 bf a4 53 07 3e d9 6b 71 3c
       -0.41311693 -0.72542745 0.132155 0.014735186
0001e0 d3 9a 92 bf ec 04 97 3c 8e 53 e4 be 13 ff 78 be
       -1.1453499 0.018434964 -0.44594997 -0.24316053
0001f0 8b 53 20 bf 6e a8 21 bf 2a 06 80 bf ea 28 fe be
       -0.62627476 -0.6314763 -1.0001881 -0.4964059
000200 09 c7 75 3d c0 12 28 bf 58 95 9f be 96 b7 c2 be
       0.060004268 -0.6565361 -0.31168628 -0.3803069
000210 23 3e c7 be c7 46 08 bf 72 20 a7 bd 1a f6 f1 3d
       -0.38914594 -0.53233 -0.08160485 0.11814518
000220 57 19 d6 bd ee 9e 23 bf 7a 5a 8a bd 8f 9f 6b be
       -0.10454052 -0.6391438 -0.06755538 -0.23010086
000230 58 82 d2 be 54 96 64 bf 3f ff 5e bf 29 08 43 bf
       -0.4111507 -0.8929188 -0.87108225 -0.76184326
000240 f2 ac 05 3e f9 a2 af be c8 b0 da be 48 b4 d9 3d
       0.13054255 -0.34304026 -0.42712998 0.10630089
000250 b5 62 76 3c df 51 33 bf 13 f7 8b bd 3b db c2 3d
       0.015038182 -0.700468 -0.06834235 0.09514471
000260 e7 b3 a2 bf 44 5a 2b bf 66 1b 23 bd 95 e2 2b bf
       -1.2711152 -0.6693461 -0.03982105 -0.6714261
000270 21 06 d6 bc 7f 44 2a bb 06 0e 28 bf a5 c4 21 bf
       -0.02612597 -0.0025980768 -0.656464 -0.6319068
000280 56 44 a0 bd 61 8e 5a 3d 52 d0 0b bf a1 eb d2 3d
       -0.07825534 0.05335844 -0.54614747 0.10298849
000290 6b b7 b6 3c ab 5b 98 3d 2b 30 1e be 48 86 12 bf
       0.022304257 0.07439359 -0.15448062 -0.57236147
0002a0 ba 4e ea be d2 16 17 bf a4 38 9b be 12 0c 96 bf
       -0.4576319 -0.59019196 -0.3031665 -1.1722434
0002b0 bb f9 56 bf 96 15 81 bc c9 5f 8b 3d ba 6a 6a bf
       -0.8397481 -0.015757363 0.06805379 -0.915691
0002c0 a7 29 29 be c6 03 ba bd 9b e5 f3 be 52 65 c6 3d
       -0.16519795 -0.09082751 -0.47636113 0.09687294
0002d0 f9 20 da be cc 2f e3 be f2 c7 49 bf d2 56 15 bc
       -0.4260328 -0.44372404 -0.7882072 -0.009114938
0002e0 7d 25 6c bf a4 95 0f bf d7 6a e3 3d 93 70 0c 3d
       -0.922447 -0.5608771 0.111043625 0.034287047
0002f0 6a 89 ab bd 4d 7d 37 bf af ae 6a be c4 ce 19 bf
       -0.08375819 -0.7167557 -0.22918199 -0.60081124
000300 5a 7b 17 bf de 74 5f bf a1 1c 20 be cd fb 61 bd
       -0.59172595 -0.872877 -0.15635921 -0.055171777
000310 a2 a1 4c bd 58 df f2 bf 3f 2e a3 bf 59 9e aa be
       -0.049958833 -1.8974409 -1.2748488 -0.33323935
000320 5b b7 e8 bd 4b b6 89 bf b5 b8 2b bf da 7f 12 bf
       -0.11363097 -1.0758756 -0.67078716 -0.57226336
000330 a2 5c 9d bf dc 29 cc be d1 ff 9a bf 40 a2 2b bf
       -1.2293894 -0.39875686 -1.2109319 -0.6704445
000340 89 de 27 bf b4 08 73 bf cf 75 4e bf 3e 28 28 3e
       -0.65573937 -0.94935155 -0.8064851 0.16421601
000350 ac f1 18 bf 7e e8 db be 20 d5 c0 3d 7e 9b 37 bf
       -0.5974376 -0.42950815 0.0941565 -0.7172164
000360 be 90 f3 be 9c ef 02 be 93 06 79 3d 2d 7a 73 bd
       -0.47571367 -0.12786716 0.060797285 -0.059442688
000370 3f 6c 34 be a6 9a 09 bf df 78 6e bf 87 62 83 3d
       -0.17619418 -0.537516 -0.93153185 0.06415277
000380 48 8b 7a bf 53 ac ca bd 5a 12 a1 3d 23 bc 55 be
       -0.97868776 -0.098961495 0.078648284 -0.2087255
000390 5c f3 00 bf ba 09 c3 be de f1 21 3e 34 84 72 3e
       -0.50371337 -0.38093358 0.15814921 0.23683244
0003a0 05 93 0f bf 03 33 01 3e ca 7a 77 bf 0b 81 0b bf
       -0.5608371 0.12617116 -0.96671736 -0.5449378
0003b0 64 53 f2 bd 9a b9 7a 3d 51 8d 83 bd 2e 1f 26 bf
       -0.11832312 0.06121216 -0.06423438 -0.64891326
0003c0 c3 ea f1 3d 20 e1 d3 bd 1a b1 6f be cf d3 05 3e
       0.11812355 -0.103456736 -0.23407403 0.1306908
0003d0 a1 ba 11 be 63 39 db 3d f8 60 a9 bf 93 1e 93 bd
       -0.1423135 0.10704305 -1.3232718 -0.07183566
0003e0 3f d0 b9 bd 67 f9 95 be df 02 31 3e 06 25 98 be
       -0.09072923 -0.2929184 0.17286251 -0.29715747
0003f0 b7 dd 2f bf f8 60 0a bd db 84 35 bf 1e ab 21 bf
       -0.68697685 -0.033783883 -0.70905846 -0.6315173

fc3.bias f4 [10]
000000 64 ac 00 be 36 f6 77 be 05 89 47 be f9 5d ee be
       -0.12565762 -0.24215016 -0.19485863 -0.4655607
000010 d2 4a 79 be d6 f3 5b be 05 5d 80 be d1 da 88 be
       -0.24344948 -0.21479735 -0.25070968 -0.26729444
000020 85 da c8 3e 6e ae 9a 3e
       0.39229217 0.30211204
