Homework3/advTrained_model.pth (torch, 439775 bytes, 6 tensors)

fc1.weight f4 [128, 784]
-0.029441267 -0.037784282 -0.026944522 0.026310697 -0.03016151 0.028684873 0.030617665 0.026824927
0.01707614 0.009089542 0.007641667 0.00794708 -0.027007774 -0.036001194 -0.025248444 -0.015541429
-0.03868471 -0.02935832 0.0010357089 -0.02218331 -0.0005062185 -0.018145168 -0.0012263771 -0.02302342
-0.022075295 -0.016869692 0.016743354 -0.026040992 -0.0198573 0.02979808 -0.004916153 -0.0047439924
0.0035723741 -0.022412155 0.025449472 0.010160816 -0.036965344 0.00029736993 -0.033598438 -0.023952818
-0.030893316 -0.0021694575 -0.011217476 -0.035722967 -0.015604654 0.019924844 -0.029116802 -0.0033905846
-0.033199187 -0.02064414 0.032764178 -0.006133799 -0.030527383 0.016466994 -0.033883628 0.024414305
0.019595534 -0.009643696 -0.032146566 0.019253355 0.01555242 0.027717503 -0.0355654 0.010188631
0.020130498 0.0023711233 0.023882661 0.028884107 -0.027332658 -0.030763997 -0.011153186 -0.022457028
0.0028469295 -0.029624986 -0.035911486 0.007179448 -0.028358525 0.0125490725 -0.026238631 0.024198208
0.02813733 -0.03920403 0.0066808914 0.013102695 0.0059418506 0.0039851717 -0.0010896586 -0.025131205
0.022926968 0.02415267 0.013110481 0.0038529558 -0.024449985 -7.1543145e-05 -0.032920297 -0.0018970325
-0.023636917 -0.01439536 0.022677952 0.0028167772 -0.007261657 0.013545029 -0.014387757 0.0233587
-0.0234864 -0.023525063 0.0001913841 0.023850096 0.010324404 -0.032222714 0.018566065 -0.01343848
-0.010742596 -0.024308529 0.029701162 -0.0035840087 0.009397036 -0.0030397405 -0.0103208795 0.024373738
-0.028737353 -0.018214151 0.024824291 0.013805607 -0.03615094 -0.032091387 -0.00130767 -0.009314637
-0.02308477 -0.04119784 0.0043701283 -0.02872867 0.008009321 0.0079465415 -0.02733281 -0.03315566
0.012634537 0.0023022096 -0.027942454 0.027765289 -0.018654892 -0.03901499 -0.03694365 -0.012627386
0.009541839 0.026057934 -0.028332155 -0.014707526 0.021207606 0.0013752052 0.004242922 -0.0143030435
-0.019428741 0.021061296 0.013133707 -0.013421243 0.014365132 0.024080973 -0.003477995 -0.018505031
0.01070748 -0.010908406 -0.01360345 -0.030661521 -0.013079124 0.025342917 -0.011017371 0.0004727058
0.014458499 0.013103793 -0.023679521 -0.032353096 0.025217015 0.021790182 -0.027436389 0.005316844
-0.038872957 -0.026430206 -0.030973278 0.027882522 -0.022691859 0.00023783054 -0.024154257 -0.028525682
-0.011608259 -0.01943592 -0.00594627 0.0010231227 -0.00021849152 -0.014919687 -0.01420483 -0.026984882
-0.020522282 -0.032375086 -0.009637259 -0.012496011 -0.03284127 -0.008409321 0.02348115 0.023041125
-0.02096228 0.016149439 -0.018914059 -0.02892676 -0.03518079 -0.025472786 0.027288618 -0.041624166
-0.00532779 -0.028549679 -0.004585465 0.00092498324 -0.003807386 -0.003746701 -0.01921966 0.005024143
-0.027932517 -0.0027159625 -0.0019250927 0.0031386116 -0.023661708 0.010866299 0.029566165 -0.018574828
0.008520979 -0.0020431997 0.010998167 -0.012117109 0.010344636 -0.020758858 0.018421851 0.029504316
0.0244441 -0.015244195 -0.016511528 -0.017169708 0.011398068 0.009651784 0.015303778 -0.009235043
0.012491591 -0.018750686 -0.04025238 -0.026389763 -0.023602575 -0.027256845 -0.01213477 -0.014630772
-0.01961001 -0.017729634 -0.014079921 0.01201155 -0.029403273 -0.0038078353 0.00504452 0.016308432
00000000: d02e f1bc b1c3 1abd c2ba dcbc 8889 d73c
00000010: 4515 f7bc 8afc ea3c e6d1 fa3c f3bf db3c
00000020: 43e3 8b3c 4dec 143c f366 fa3b 7834 023c
00000030: 683f ddbc fd75 13bd d3d5 cebc 7aa1 7ebc
00000040: dc73 1ebd dc80 f0bc a0c0 873a c6b9 b5bc
00000050: c0b3 04ba 2da5 94bc 63be a0ba 9c9b bcbc
00000060: 40d7 b4bc 4f32 8abc 5c29 893c eb53 d5bc
00000070: c7ab a2bc 1a1b f43c ae17 a1bb 7e73 9bbb
00000080: 7e1e 6a3b b299 b7bc 697b d03c 8d79 263c
00000090: f968 17bd 51e8 9b39 849e 09bd b338 c4bc
000000a0: fb13 fdbc 752d 0ebb 81c9 37bc 3f52 12bd
000000b0: aaaa 7fbc 6d39 a33c 5c86 eebc 9234 5ebb
000000c0: dffb 07bd e61d a9bc bb33 063d 09fe c8bb
000000d0: 9014 fabc cae5 863c 8fc9 0abd 8200 c83c
000000e0: d086 a03c 9800 1ebc 1eac 03bd 36b9 9d3c
000000f0: 94cf 7e3c d10f e33c 06ad 11bd 37ee 263c
00000100: b7e8 a43c d964 1b3b 92a5 c33c 5d9e ec3c
00000110: bde8 dfbc c704 fcbc dabb 36bc cdf7 b7bc
00000120: 8d93 3a3b 19b0 f2bc ec17 13bd 9341 eb3b
00000130: 2350 e8bc a09a 4d3c 66f2 d6bc 523b c63c
00000140: 4280 e63c 6894 20bd 61eb da3b b0ac 563c
00000150: dbb3 c23b 0b96 823b e0d2 8eba f5df cdbc
00000160: 56d1 bb3c d2db c53c 58cd 563c df81 7c3b
00000170: 564b c8bc 6f09 96b8 6fd7 06bd d9a5 f8ba
00000180: 35a2 c1bc 84da 6bbc 1dc7 b93c ae99 383b
00000190: 32f3 edbb f8eb 5d3c a0ba 6bbc bf5a bf3c
000001a0: 8d66 c0bc a2b7 c0bc 47ae 4839 4761 c33c
000001b0: b027 293c f7fb 03bd dc17 983c 122d 5cbc
000001c0: b701 30bc ae22 c7bc da4f f33c b0e1 6abb
000001d0: 07f6 193c 6236 47bb e818 29bc 6fab c73c
000001e0: 996a ebbc d835 95bc 505c cb3c ea30 623c
000001f0: 0213 14bd 4272 03bd 2066 abba 6b9c 18bc
00000200: 461c bdbc 11bf 28bd 4b33 8f3b 6358 ebbc
00000210: 8739 033c 3632 023c 0fe9 dfbc 3bce 07bd
00000220: 1701 4f3c abe0 163b 93e7 e4bc 0874 e33c
00000230: 25d2 98bc 2fce 1fbd 3a52 17bd 18e3 4ebc
00000240: 6055 1c3c 7377 d53c d618 e8bc d6f7 70bc
00000250: 93bb ad3c 3b40 b43a 3608 8b3b 5057 6abc
00000260: 0629 9fbc bd88 ac3c c32e 573c c6e4 5bbc
00000270: bb5b 6b3c 7645 c53c 13ef 63bb dd97 97bc
00000280: 6d6e 2f3c 2cb9 32bc 01e1 5ebc df2d fbbc
00000290: d249 56bc f39b cf3c 3482 34bc 80d5 f739
000002a0: 57e3 6c3c 4bb1 563c 8efb c1bc ae84 04bd
000002b0: ea93 ce3c 5381 b23c 47c2 e0bc ec38 ae3b
000002c0: 4039 1fbd 2984 d8bc acbb fdbc e369 e43c
000002d0: 47e4 b9bc 2662 7939 26df c5bc b1ae e9bc
000002e0: 9130 3ebc 1438 9fbc eed8 c2bb 4d1a 863a
000002f0: df1a 65b9 b471 74bc 60bb 68bc 660f ddbc
00000300: 581e a8bc bd9b 04bd 98e5 1dbc 12bc 4cbc
00000310: 9184 06bd 40c7 09bc 8a5b c03c bec0 bc3c
00000320: 16b9 abbc d44b 843c a8f1 9abc d0f7 ecbc
00000330: bb19 10bd 4eac d0bc 618c df3c 1a7e 2abd
00000340: be94 aebb 04e1 e9bc ab41 96bb 937a 723a
00000350: 5685 79bb 368b 75bb 8c72 9dbc 91a1 a43b
00000360: bcd2 e4bc 4afe 31bb 6453 fcba 2ab1 4d3b
00000370: 33d6 c1bc 9008 323c be34 f23c 3d2a 98bc
00000380: 949b 0b3c 34e7 05bb a831 343c d786 46bc
00000390: 8c7c 293c 7b0e aabc 6ce9 963c 09b3 f13c
000003a0: fe3e c83c cac2 79bc 2f43 87bc 7da7 8cbc
000003b0: f6be 3a3c 8422 1e3c b3bc 7a3c 944e 17bc
000003c0: 88a9 4c3c 0a9b 99bc aedf 24bd 582f d8bc
000003d0: 305a c1bc bf49 dfbc ead0 46bc e8b5 6fbc
000003e0: 2ca5 a0bc bd3d 91bc 78af 66bc 18cc 443c
000003f0: 22df f0bc e08c 79bb 804c a53b 4399 853c

fc1.bias f4 [128]
-0.032830168 -0.021048829 -0.0617457 -0.0206897 -0.004980476 0.0019460897 -0.05261479 -0.029653268
-0.0076642083 -0.0041860803 -0.02559557 -0.032452967 -0.036767706 -0.019015126 -0.017700665 -0.0003059864
-0.030207029 -0.043581836 -0.11449095 0.0059940885 0.014496476 0.0029077774 -0.0026846386 0.016228583
-0.018470109 -0.01722465 -0.017490875 -0.015311535 -0.63936096 -0.030122502 -0.0027689082 -0.005252627
0.012588165 0.013049668 -0.0043014684 -0.033892985 -0.032001846 0.003696994 -0.023855366 0.0048699486
0.361829 -0.020442965 -0.02618748 -0.040638037 -0.0011637111 -0.03454338 -0.02607792 0.02491027
0.019923896 -1.1485454 0.00805494 -0.011287918 -0.010017905 -0.0151759805 0.016339328 -0.02862939
-0.050110757 0.020467225 -0.002906107 -0.018335545 -0.045966536 0.027281288 -0.009648156 -0.024016684
-0.005827616 -0.031582996 -0.026291644 0.024929648 0.017129693 -0.02170524 0.017913163 -0.0360363
-0.038364213 -0.01443996 0.0145576475 -0.039445274 0.010843422 -0.0053697405 -0.015705397 -0.026735248
0.022417402 0.018188441 -0.040224813 0.024694415 -0.0036433996 -0.013669103 0.00085046026 -0.00044335847
-0.033770703 -0.013350081 -0.62748665 -0.013953016 -0.038730852 -0.03544907 0.028688204 -0.007911536
-0.01414782 0.0067068124 -0.0017758792 -1.0131502 0.015491213 0.022585023 0.016934816 -0.036077056
0.028274685 -0.028683377 -0.023239922 -0.74620694 0.0067523103 -0.041559592 0.0148733435 -0.038039472
-0.019552626 -0.020954074 -0.0023443913 0.50855523 -0.024968809 -0.027886588 -0.0007327108 -0.05944914
-0.03184464 -0.012896622 -1.2587936 0.005419925 -0.0416714 0.27804086 -0.03545651 -0.03897659
00000000: ed78 06bd 986e acbc 0fe9 7cbd 727d a9bc
00000010: 4333 a3bb ef13 ff3a 9b82 57bd 69eb f2bc
00000020: 0a24 fbbb 632b 89bb cdad d1bc 67ed 04bd
00000030: bc99 16bd 9cc5 9bbc fc00 91bc cd6c a0b9
00000040: bb74 f7bc de82 32bd 3b7a eabd 0f6a c43b
00000050: a182 6d3c 6990 3e3b c3f0 2fbb cef1 843c
00000060: a04e 97bc b61a 8dbc 0649 8fbc 3cdd 7abc
00000070: 29ad 23bf 77c3 f6bc 9276 35bb 3b1e acbb
00000080: 973e 4e3c 46ce 553c 55f3 8cbb 5fd3 0abd
00000090: 5e14 03bd 4449 723b 546c c3bc 1794 9f3b
000000a0: a741 b93e 0178 a7bc 2087 d6bc 1274 26bd
000000b0: aa87 98ba 5c7d 0dbd 5da1 d5bc 9f10 cc3c
000000c0: 7037 a33c 8903 93bf def8 033c f6f0 38bc
000000d0: 2422 24bc ada4 78bc 0eda 853c 2f88 eabc
000000e0: f040 4dbd e2aa a73c 6374 3ebb 6d34 96bc
000000f0: 6847 3cbd 027d df3c 4d13 1ebc a3be c4bc
00000100: 96f5 bebb 2c5d 01bd 9361 d7bc 4339 cc3c
00000110: 9253 8c3c 30cf b1bc a0be 923c cd9a 13bd
00000120: cb23 1dbd 9595 6cbc 3383 6e3c 5e91 21bd
00000130: 9ca8 313c a6f4 afbb 9ba8 80bc e103 dbbc
00000140: b3a4 b73c edff 943c c6c2 24bd f14b ca3c
00000150: 1ac6 6ebb 60f4 5fbc 6cf1 5e3a 9172 e8b9
00000160: 2653 0abd 4cba 5abc f7a2 20bf 319b 64bc
00000170: 3ea4 1ebd 0b33 11bd 8603 eb3c 639f 01bc
00000180: 42cc 67bc d2c4 db3b 9ec4 e8ba e8ae 81bf
00000190: dbce 7d3c 3a04 b93c e2ba 8a3c 89c5 13bd
000001a0: 50a0 e73c 67f9 eabc a661 bebc 6b07 3fbf
000001b0: 7c42 dd3b 643a 2abd 53af 733c 47cf 1bbd
000001c0: d42c a0bc e1a7 abbc 5ca4 19bb ad30 023f
000001d0: 638b ccbc 6a72 e4bc 6413 40ba f180 73bd
000001e0: 866f 02bd 5a4c 53bc 2620 a1bf a099 b13b
000001f0: a1af 2abd 5f5b 8e3e d83a 11bd eba5 1fbd

fc2.weight f4 [64, 128]
-0.019080298 0.0017339312 0.061419018 -0.09598082 -0.050586283 0.08914415 0.024446296 0.08067857
0.053459138 0.0640004 0.041316263 0.044283967 -0.09169177 -0.07946444 -0.023822716 0.024954472
0.008093322 0.024166772 -0.026272126 0.066304065 0.013221483 -0.07821362 0.022479579 0.0067164702
-0.08041188 0.05522105 -0.06100124 0.03515439 -0.3495667 -0.06690749 0.048417438 0.004161819
0.07750314 -0.044768114 0.027649209 -0.088195495 0.06144271 -0.08688224 0.035135277 0.041435998
-0.10013033 0.016288703 0.038188297 0.03842764 -0.05459834 -0.0068754023 -0.072311014 -0.03620682
0.07603677 -0.19719887 -0.008362233 0.033428784 0.006024143 0.08991717 0.018193126 -0.011747971
-0.0071514533 0.029361324 0.053218123 0.045495667 -0.07924153 -0.035810754 0.06393645 0.059394598
-0.07234593 -0.03049846 0.06779309 -0.03634062 0.01216063 0.06689423 -0.010691276 0.020053918
-0.020750498 -0.087104954 0.05424473 -0.027847067 -0.067683995 0.08321026 0.02826877 -0.061492823
0.059157155 0.030333867 0.022172036 0.040765837 -0.06200075 -0.07987033 0.020711275 0.058155242
-0.059999153 -0.075155556 -0.010709637 -0.0346448 0.058241315 0.0042436523 0.037661873 -0.029498067
0.0035895323 0.06581313 0.044104286 -0.20561014 -0.033599928 -0.107496716 -0.07716079 -0.084942766
0.03008894 0.062616825 -0.012062767 0.25360602 -0.07235463 0.072181866 -0.0172542 -0.067326024
-0.014516386 0.02632451 -0.004435623 0.07256977 -0.038382333 -0.057505783 0.08052662 0.06723515
-0.06837242 0.041535202 -0.21063766 0.06625368 -0.03545754 0.024029646 -0.02902939 -0.02093265
0.020304415 -0.014971677 0.032558672 -0.08099542 -0.06784945 -0.00918328 0.070382215 0.06609336
-0.07955401 -0.02331303 0.01873827 -0.07425035 -0.03959427 -0.056077544 -0.020136032 0.02182223
0.07451646 0.016540833 -1.4004143 -0.05603202 0.028287258 0.063725665 0.037717767 0.067429855
-0.0532572 0.07725263 0.016984187 -0.031112012 0.12318179 -0.031597797 0.036316678 0.08776665
-0.06344811 -0.046035733 0.080872335 0.009360457 0.06672386 0.0069254013 -0.04321559 -0.023720592
-0.17976399 -0.07476131 0.07876356 -0.07702143 7.4446514e-05 -0.009766944 0.03106264 -0.07466863
-0.05120786 0.07357671 0.0052394033 -0.000819693 -0.065698095 0.016858667 0.069997594 0.030604493
-0.0067555415 -0.03095726 -0.008728161 0.0050798208 0.075109266 -0.06086065 0.039115183 -0.006779367
-0.043659806 -0.07199217 0.0492431 -0.0487976 0.04694723 0.016878664 0.050059214 -0.040876046
-0.10050016 0.026861785 -0.023603154 -0.03798115 0.041246817 -0.051175773 -0.018813113 -0.048203576
0.07017473 0.00082108215 0.020787206 -0.053361744 0.045109056 0.06703272 -0.06608205 0.04632415
0.03325086 0.021072604 0.03280537 -0.08143274 0.053395033 -0.056327246 0.0080515 -0.07627259
0.035074532 0.008474978 0.069818385 0.033898596 0.081420116 -0.09161281 -0.06366899 -0.06429451
-0.075967506 0.065740705 0.062160514 0.1557556 0.04070706 -0.038514495 0.07957446 -0.034458157
-0.0911953 -0.096450984 -0.02893648 0.15186742 0.03776426 0.050275307 -0.016175812 -0.099571854
0.08663603 -0.062457412 0.13981582 0.05856003 -0.017927373 0.016420288 -0.021909736 -0.01103472
00000000: 494e 9cbc 1445 e33a 8292 7b3d 9891 c4bd
00000010: 9033 4fbd 3591 b63d 9943 c83c ce3a a53d
00000020: f8f7 5a3d a412 833d 3e3b 293d 1b63 353d
00000030: e5c8 bbbd 41be a2bd db27 c3bc 526d cc3c
00000040: da99 043c 65f9 c53c a438 d7bc 6dca 873d
00000050: eb9e 583c 762e a0bd 1827 b83c d615 dc3b
00000060: fcae a4bd 782f 623d 70dc 79bd 0dfe 0f3d
00000070: 68fa b2be cb06 89bd 5d51 463d de5f 883b
00000080: f7b9 9e3d c55e 37bd 9880 e23c d79f b4bd
00000090: 5aab 7b3d 51ef b1bd 02ea 0f3d cbb8 293d
000000a0: 2111 cdbd e36f 853c 556b 1c3d 4d66 1d3d
000000b0: 82a2 5fbd 0e4b e1bb cc17 94bd 9a4d 14bd
000000c0: 2bb9 9b3d 80ee 49be bf01 09bc 9fec 083d
000000d0: 2d66 c53b 7e26 b83d c009 953c 907a 40bc
000000e0: bd56 eabb 2987 f03c 3ffb 593d aa59 3a3d
000000f0: 6249 a2bd 4cae 12bd 1df1 823d c047 733d
00000100: 1a2a 94bd e8d7 f9bc 1bd7 8a3d e7d9 14bd
00000110: 613d 473c d8ff 883d 762a 2fbc 1d48 a43c
00000120: f3fc a9bc 1564 b2bd b92f 5e3d 881f e4bc
00000130: e89d 8abd 246a aa3d e893 e73c e6df 7bbd
00000140: c64e 723d bb7e f83c 21a2 b53c 14fa 263d
00000150: 80f4 7dbd 0e93 a3bd b1aa a93c 3134 6e3d
00000160: acc1 75bd 28eb 99bd 7977 2fbc b5e7 0dbd
00000170: 728e 6e3d 560e 8b3b 5643 1a3d eea5 f1bc
00000180: 5c3e 6b3b 09c9 863d b2a6 343d 778b 52be
00000190: 14a0 09bd 3d27 dcbd 7a06 9ebd 79f6 adbd
000001a0: 157d f63c 403d 803d e9a2 45bc a6d8 813e
000001b0: aa2e 94bd 16d4 933d ae58 8dbc 3ae2 89bd
000001c0: 23d6 6dbc 80a6 d73c b458 91bb 769f 943d
000001d0: cb36 1dbd 2f8b 6bbd 24eb a43d 95b2 893d
000001e0: d706 8cbd d120 2a3d 66b1 57be 02b0 873d
000001f0: ed3b 11bd d2d9 c43c 0bcf edbc f37a abbc
00000200: 7255 a63c c44b 75bc 3e5c 053d ede0 a5bd
00000210: a7f4 8abd 7875 16bc 8d24 903d f55b 873d
00000220: 36ed a2bd f8fa bebc 0081 993c 9110 98bd
00000230: 9a2d 22bd 91b1 65bd 52f4 a4bc 89c4 b23c
00000240: 169c 983d a480 873c c740 b3bf d581 65bd
00000250: aeba e73c 9a82 823d f27d 1a3d aa18 8a3d
00000260: 3924 5abd a036 9e3d 6c22 8b3c 9ede febc
00000270: bc46 fc3d b16c 01bd ccc0 143d 00bf b33d
00000280: 15f1 81bd f78f 3cbd 65a0 a53d 9a5c 193c
00000290: 85a6 883d 7aee e23b d502 31bd b051 c2bc
000002a0: 0d14 38be 751c 99bd ca4e a13d 69bd 9dbd
000002b0: 2b20 9c38 8805 20bc 1477 fe3c deeb 98bd
000002c0: 55bf 51bd 63af 963d 4daf ab3b abe0 56ba
000002d0: b98c 86bd 301b 8a3c e65a 8f3d 46b6 fa3c
000002e0: 975d ddbb 149a fdbc 9000 0fbc a074 a63b
000002f0: e3d2 993d 0449 79bd 3e37 203d 7425 debb
00000300: a0d4 32bd a170 93bd 22b3 493d fedf 47bd
00000310: bd4b 403d 2045 8a3c e40a 4d3d a46d 27bd
00000320: 07d3 cdbd 3f0d dc3c 675b c1bc 1f92 1bbd
00000330: 6cf2 283d b09d 51bd f51d 9abc 1d71 45bd
00000340: c5b7 8f3d e43d 573a ee49 aa3c d891 5abd
00000350: 46c4 383d 7348 893d 0756 87bd 64be 3d3d
00000360: 0e32 083d 74a0 ac3c ec5e 063d 35c6 a6bd
00000370: c0b4 5a3d 66b7 66bd 70ea 033c ce34 9cbd
00000380: 50aa 0f3d a2da 0a3c f1fc 8e3d 41d9 0a3d
00000390: 97bf a63d 7f9f bbbd e364 82bd d7ac 83bd
000003a0: da94 9bbd 10a3 863d 069c 7e3d 657e 1f3e
000003b0: 72bc 263d 60c1 1dbd eff7 a23d ff23 0dbd
000003c0: 9ac4 babd 1888 c5bd 320c edbc 2283 1b3e
000003d0: b2ae 1a3d 7bed 4d3d 2383 84bc 54ec cbbd
000003e0: 3b6e b13d 58d3 7fbd e12b 0f3e a4dc 6f3d
000003f0: 6ddc 92bc d783 863c 0c7c b3bc f8ca 34bc

fc2.bias f4 [64]
0.075069524 -0.75183475 -0.15080026 -0.01379887 -1.2593977 2.6203232 1.4939222 -0.08429542
-1.116917 -0.44513753 0.38080782 -0.045123395 -0.14486384 0.16853349 0.33101487 0.024944736
-0.19449696 -0.15905397 -0.06565315 -0.5616809 0.16085814 -0.034730684 0.016339488 -0.08611871
-0.20519462 0.039422657 -1.2600282 0.6495869 -0.09636633 0.3225753 -0.03702554 0.5450429
-0.09032751 0.1267899 -0.04976134 -0.14549817 -0.53514975 -0.07147257 -0.4068231 0.07913402
-0.6308916 0.07721711 2.483607 -0.5265346 -0.33162186 -0.3793057 0.10917137 -1.1968007
-0.8139403 0.014493585 -0.7115444 0.20314299 -0.28425387 0.8551311 -0.4904166 -0.13430943
0.32404676 0.31989008 -0.17480676 0.6428053 -1.0126455 0.25515077 -0.03147448 -0.11765159
00000000: 0dbe 993d 3e78 40bf 626b 1abe a814 62bc
00000010: f233 a1bf 60b3 2740 d838 bf3f 14a3 acbd
00000020: 23f7 8ebf 11e9 e3be 3ef9 c23e 4fd3 38bd
00000030: 3057 14be 0b94 2c3e c87a a93e e758 cc3c
00000040: 362a 47be 0bdf 22be 2975 86bd 52ca 0fbf
00000050: ffb7 243e c341 0ebd 64da 853c 025f b0bd
00000060: 8a1e 52be a779 213d 9b48 a1bf 544b 263f
00000070: b65b c5bd 9728 a53e 18a8 17bd ee87 0b3f
00000080: a1fd b8bd 36d5 013e 8cd2 4bbd 79fd 14be
00000090: 93ff 08bf 3660 92bd 1e4b d0be 0411 a23d
000000a0: 1d82 21bf 0124 9e3d 6bf3 1e40 f9ca 06bf
000000b0: 57ca a9be 5b34 c2be 3d95 df3d c430 99bf
000000c0: 645e 50bf 8076 6d3c c627 36bf b704 503e
000000d0: b989 91be dfe9 5a3f e217 fbbe 6988 09be
000000e0: 75e9 a53e a2c8 a33e 8b00 33be e38e 243f
000000f0: 5e9e 81bf 1fa3 823e 62eb 00bd 51f3 f0bd

fc3.weight f4 [10, 64]
-1.1316801 -0.14283994 -0.47910067 -0.09598042 -0.71255213 -0.8996802 -2.3187413 -0.1378279
-0.15111515 -1.2602228 -0.9491709 -0.08160572 -1.2344676 -0.7298818 -1.4710642 -0.5095435
-0.37234735 -0.06852823 -0.12045252 -0.34617218 -0.3425276 -0.0867032 -3.3217242 -0.014005656
-1.6054623 -0.07222142 -0.075346194 -0.4220527 0.021166915 -0.5831199 -1.191481 -2.301277
-0.11408278 -1.3248582 0.021501075 -0.054513227 -1.4041032 -0.20110849 -1.9558657 -0.8460003
-0.7633158 -0.5253042 -0.33912098 -2.318677 -0.8019955 -0.6683241 -0.9671483 -1.1964455
-0.1557318 -0.0763235 -0.5789451 -0.15947779 -0.1746736 -0.9932329 0.21793887 0.020819942
-0.59186286 -1.6610575 -1.2223155 -3.558231 -1.2967191 -1.0016395 -0.5646079 -0.051934656
-0.39846984 -0.7227445 -0.2833099 -0.013126733 -0.6270048 -0.046629258 -1.6428639 0.010586848
-0.4382908 -0.7496537 -0.40312836 -0.10531563 -1.8534826 -0.7578451 -1.5857083 -0.5033228
-0.21531256 -0.3390313 -0.11259447 -0.43329075 -0.25863725 -0.00065157586 -2.9647095 0.078717455
-0.47753707 0.004180097 -0.24226578 -1.0354316 -0.04841917 -1.9087331 -0.81332994 -2.3892431
-0.059796464 -1.6517475 0.0011851228 -0.118167706 -1.8018271 -0.35462025 -0.16961952 -1.3974452
-0.30308843 -0.8007364 -0.70228845 -1.3487309 -0.66152954 -0.63092387 -0.14638762 -0.8926764
-0.56021756 -0.16080521 -0.7120014 -0.42379507 -0.19103388 -1.1569238 -0.3881241 -0.16343603
-0.95925844 -3.329695 -0.746846 -3.1367965 -0.82715034 0.12552758 -1.0556136 -0.091404095
-1.0942878 -0.36228007 -0.4921459 -0.1503058 -0.51541305 -0.92656815 -2.4949136 -0.065442294
-0.15113682 -1.221252 -0.9908879 -0.11283709 -1.9529065 -0.7438419 -1.7353975 -0.62865514
-0.16447401 -0.047630105 0.0510033 -0.5884689 -0.35022736 -0.09146709 -2.663575 -0.005262296
-2.1077466 -0.00046018412 0.018035695 -0.95619553 -0.1017578 -1.2661009 -1.2702487 -1.6167209
-0.013055205 -1.5763894 -0.08134996 -0.11190044 -1.7248427 -0.08833982 -2.2699234 -0.7324858
-0.6349699 -0.68953055 -0.6590946 -1.4895506 -0.54067385 -0.53680027 -4.1885815 -0.7758471
-0.5389944 -0.5960373 -0.484058 -0.55178005 -0.15429147 -1.4793657 -0.35230052 -0.16372056
-0.42528552 -2.2814198 -1.7420838 -2.8173752 -1.2717578 -1.4443785 -0.47634447 0.07485185
-0.6752619 -0.46686664 -0.46662197 -0.023838568 -0.6760937 -0.16208644 -1.8462862 -0.15894622
-0.05122536 -0.59728 -0.88758963 -0.068703264 -1.4746932 -0.7936824 -1.9995441 -0.37312713
0.03805415 -0.15145922 -0.10947289 -0.36364767 -0.39739275 -0.09982589 -2.738957 0.03631833
-1.1683726 -0.11581606 -0.102102764 -0.6811283 0.05903779 -1.534116 -0.8128328 -1.1417366
-0.12425174 -1.4670047 -0.063383825 -0.057988137 -2.317534 -0.116988614 -1.071661 -0.558951
-0.433065 -0.7319099 -0.6224596 -1.257646 -0.737204 -0.50696796 -1.0923545 -0.7442282
-0.45578155 -0.3478284 -0.40710407 -0.48898205 -0.2019441 -1.1596463 -0.3028638 -0.08010432
-0.63352376 -2.7710292 -0.3753356 -2.2993999 -1.2848037 -1.1945018 -0.74164367 0.010186338
00000000: e5da 90bf a244 12be af4c f5be 6291 c4bd
00000010: d169 36bf 7151 66bf 4266 14c0 c222 0dbe
00000020: eebd 1abe fb4e a1bf ddfc 72bf e620 a7bd
00000030: 0903 9ebf 89d9 3abf d54b bcbf 7171 02bf
00000040: 50a4 bebe 8758 8cbd d0af f6bd 7b3d b1be
00000050: c75f afbe 7391 b1bd 2197 54c0 fb77 65bc
00000060: ca7f cdbf d3e8 93bd 1b4f 9abd 4b17 d8be
00000070: 3d66 ad3c 5947 15bf 7382 98bf 1f48 13c0
00000080: 3ca4 e9bd f494 a9bf 0623 b03c 4349 5fbd
00000090: a7b9 b3bf 62ef 4dbe cf59 fabf 7a93 58bf
000000a0: aa68 43bf 567a 06bf 44a1 adbe 3465 14c0
000000b0: 944f 4dbf 4a17 2bbf 0897 77bf 2025 99bf
000000c0: 2878 1fbe 7f4f 9cbd bf35 14bf 254e 23be
000000d0: a3dd 32be 8344 7ebf 5e2b 5f3e 958e aa3c
000000e0: 5384 17bf 889d d4bf d674 9cbf 0fba 63c0
000000f0: e4fa a5bf b935 80bf 258a 10bf 6fb9 54bd
00000100: 3d04 ccbe c905 39bf ff0d 91be 8211 57bc
00000110: 6383 20bf 52fe 3ebd 5d49 d2bf 7574 2d3c
00000120: a767 e0be 4ee9 3fbf d766 cebe b9af d7bd
00000130: eb3e edbf 2302 42bf 7df8 cabf c3d9 00bf
00000140: e57a 5cbe 8395 adbe ee97 e6bd 49d8 ddbe
00000150: 1a6c 84be 84ce 2aba cdbd 3dc0 9e36 a13d
00000160: bd7f f4be 32f9 883b 8514 78be 0689 84bf
00000170: 2e53 46bd 5e51 f4bf 6436 50bf 5ce9 18c0
00000180: 23ed 74bd 766c d3bf 1f56 9b3a e901 f2bd
00000190: 45a2 e6bf c990 b5be bdb0 2dbe 7cdf b2bf
000001a0: 682e 9bbe 10fd 4cbf 2dc9 33bf 37a3 acbf
000001b0: 005a 29bf 3a84 21bf a3e6 15be 7186 64bf
000001c0: 6b6a 0fbf 1faa 24be b945 36bf abfb d8be
000001d0: 639e 43be 1416 94bf 34b8 c6be c65b 27be
000001e0: f691 75bf b919 55c0 4d31 3fbf 46c1 48c0
000001f0: 20c0 53bf 4d8a 003e 591e 87bf 1232 bbbd
00000200: 9f11 8cbf c67c b9be 8cfa fbbe c3e9 19be
00000210: 1cf2 03bf 9233 6dbf aaac 1fc0 9c06 86bd
00000220: 9cc3 1abe fc51 9cbf d4aa 7dbf 2217 e7bd
00000230: d7f8 f9bf 6c6c 3ebf 8121 debf 8bef 20bf
00000240: e06b 28be c917 43bd d6e8 503d e6a5 16bf
00000250: 0051 b3be 1953 bbbd 0378 2ac0 576f acbb
00000260: 52e5 06c0 de44 f1b9 98bf 933c 3bc9 74bf
00000270: 6566 d0bd 980f a2bf 8297 a2bf b6f0 cebf
00000280: 80e5 55bc 21c7 c9bf cf9a a6bd 0f2c e5bd
00000290: a5c7 dcbf 82eb b4bd 6d46 11c0 3084 3bbf
000002a0: 638d 22bf 1385 30bf 6cba 28bf 98a9 bebf
000002b0: 9a69 0abf be6b 09bf dc08 86c0 ea9d 46bf
000002c0: 89fb 09bf e795 18bf 73d6 f7be 7541 0dbf
000002d0: 95fe 1dbe db5b bdbf bc60 b4be 5da6 27be
000002e0: 06bf d9be c802 12c0 9afc debf e04f 34c0
000002f0: f6c8 a2bf 65e1 b8bf 6ce3 f3be ed4b 993d
00000300: f7dd 2cbf 2509 efbe 13e9 eebe 1a49 c3bc
00000310: 7a14 2dbf fdf9 25be 1b53 ecbf ccc2 22be
00000320: afd1 51bd 58e7 18bf 1339 63bf 4cb4 8cbd
00000330: bfc2 bcbf c52e 4bbf 10f1 ffbf 850a bfbe
00000340: abde 1b3d 2018 1bbe 5333 e0bd 0730 babe
00000350: 1077 cbbe 8471 ccbd 124b 2fc0 87c2 143d
00000360: 3c8d 95bf f830 edbd 411b d1bd 6d5e 2ebf
00000370: 9cd1 713d ea5d c4bf cf15 50bf 6d24 92bf
00000380: b277 febd cfc6 bbbf 61cf 81bd f884 6dbd
00000390: 7a52 14c0 ba97 efbd 302c 89bf 6a17 0fbf
000003a0: b2ba ddbe 725e 3bbf 8359 1fbf 8bfa a0bf
000003b0: 67b9 3cbf a7c8 01bf 46d2 8bbf bd85 3ebf
000003c0: 335c e9be 9016 b2be f26f d0be db5b fabe
000003d0: 6fca 4ebe 4a6f 94bf f710 9bbe bc0d a4bd
000003e0: 9d2e 22bf 8b58 31c0 fd2b c0be 5e29 13c0
000003f0: 7374 a4bf 6fe5 98bf 5cdc 3dbf 99e4 263c

fc3.bias f4 [10]
-1.0911891 -0.5915916 0.1452393 0.041302998 0.9054695 2.0014312 -0.6408374 -1.1019958
-1.0529845 -0.7828962
00000000: 16ac 8bbf 8c72 17bf 9cb9 143e 552d 293d
00000010: d9cc 673f 7317 0040 eb0d 24bf 330e 8dbf
00000020: 32c8 86bf e36b 48bf
