Homework3/model.pth (torch, 439367 bytes, 6 tensors)

fc1.weight f4 [128, 784]
00000000: 5039 f33b f2b0 fa3c 6667 eb3c be7d 853c
00000010: c176 243c a45d a9bb 7ef8 963c 8078 0c3d
00000020: fdae 09bc ca7f c2bc 2cc7 663c be18 903c
00000030: c8eb dcbc c1a1 973c f9b3 06bd 4936 71bc
00000040: 04a2 23bd 5b66 06bd e02f 803c 5983 963c
00000050: cfb5 2ebc 13ec e4bc b934 083d 800b 0fbd
00000060: 4ae6 d3bb cef2 3cbc 604e 613b aaa1 ffbc
00000070: ec02 813c e4fc 09bd 8094 6bbc 902a b7bc
00000080: f302 46bc 41fe 06bd 3442 ba3b 0286 023c
00000090: 23bc d3bc 07b2 c93c 0d09 15bd 5523 87bc
000000a0: f409 e03b 72ee 19bd 1907 b33c 3514 23bd
000000b0: 9b85 3d3b 38d9 a9bc f6e6 c33c e358 c63c
000000c0: 3cc3 2e3c 9c51 98bb b6fe e4bc 61eb a1bb
000000d0: a6aa 1f3c 38d4 853b 1cba bf3c f048 d73b
000000e0: 2eed 98bc aa90 16bc 2a3f bfbc b7a9 ee3a
000000f0: a0ad ce3b 73fa 813c 67e8 533c 5700 043a
00000100: ff84 5fbc bc66 383a 374a f3bc 970d c73c
00000110: 80dc 1cbc 7e18 cfbc cd8b 43bc 03db 8e3c
00000120: 1e7b e93b 9989 11bb c945 ae3c 84a6 b8bc
00000130: f6ea 753b 946a 843b 0f81 ae39 c245 d03c
00000140: af95 69bc f8a1 d7bc c85d c1bb e0af ef3a
00000150: 20ff 643c 3451 633c bec5 8abc ca1d afbc
00000160: b8ca 073c 2c78 6abb dce0 0cbd 692b 7abc
00000170: 3d65 df3c e06b 7dbc 64f5 c43c 37a6 52bc
00000180: 88e5 09bd 5db1 003c 9fcf 99bc e670 403a
00000190: f139 0dbd eb57 673c 27f5 613c da26 17bc
000001a0: c2e8 f23c 76fb eeba 038b bbbc 5d4f ccbc
000001b0: 1cc2 ccbc 8889 32bc a8c9 84bb 400d 1dbc
000001c0: 0620 d33c dce2 b1bc 4605 3ebc ca72 3abc
000001d0: acce 0f3c 3199 713c f16b ae3c 8c1f be3c
000001e0: 8d27 c03b 2a0c 973c 498a 0cbd a516 f93c
000001f0: bddd 0fbc 5d91 b43b 41e2 e9bc 6dc8 cc3b
00000200: 757d b3bc eef9 0fbd 595a 19bd 43c8 09bd
00000210: 5dc6 a13c 896f a2bc f32e d63a 1f18 383c
00000220: 62f8 ccbc 63b8 a6bc 05b5 53bb 6a99 8dbc
00000230: 6654 4ebc a83b c73b a05b db3c 60f3 d4bc
00000240: 4d3b e13c 20d3 c13c 3398 aebc eba7 a33b
00000250: eda1 aa3b ef6f 343c 304d 873c 0742 783b
00000260: e103 17bd 64e5 0ebd 0176 e73c 8839 c438
00000270: c280 dbbc accf c8bc 0671 2ebc 0789 6ebb
00000280: 8c1b 55bc e0f9 0f3c b75a 21bd 553a 0cbd
00000290: d826 31bc b90d 8c3c 4364 f93b 92dc cc3c
000002a0: 8687 fa3c e1a1 fabc 804e bab9 9bd8 25bc
000002b0: cf2b a2bc 9947 b03c ad1f 993b fde1 76bc
000002c0: fc88 7c3c 6ec1 103c 5d3f 84ba 2354 88bc
000002d0: 580e 063d bf95 043c 676d 9cbc 8d82 e4bc
000002e0: b57d b13c 61ad 4dbc 4c74 d3ba 66ac 293a
000002f0: e455 b43a b45f 493b 3d12 523c ec17 19bc
00000300: 5df9 c43b 9e1f 83bb 1ac3 c5bc ea83 64bc
00000310: 0c04 e8bc a41c 633c 1835 4e3c 8e00 c0bc
00000320: c365 ac3c 3796 c838 6394 b63c 868f 863b
00000330: bf1a 14bd 14d1 efbc 9e17 013d f6f9 edbc
00000340: c32c 6f3c 1752 713c e58d ba3b 287c 163b
00000350: 4352 873b 4c53 ccbb ac02 a8bc bcde 7ebb
00000360: 8700 c13c c76b c03b 947b f6bc 193b 163b
00000370: 747b 943c 5129 aebc e15e fabc 3053 323b
00000380: 7550 8cbc 4006 64bc b0db 9a3b d8da 543c
00000390: 2152 363c fa90 b6bc ee7a fbbc e06d a1bc
000003a0: e20c d13b ca9a b9bc ecdf 38bb 7b5a 77bb
000003b0: 64cf e8bc 81a0 133c e8f6 24bd b680 8a3c
000003c0: adcb 29bc a18f c7bc acc6 0abd f85c 24bd
000003d0: 82ed 1f3c af68 11bd f150 b5bb a23f 45ba
000003e0: 60d9 03bd 4a4e 873b 88c9 f33b 3589 a5bc
000003f0: 377d 043d f7f6 103d 58d4 9e3c 578a 14bd
0.0074226037 0.030601952 0.028735828 0.01629531 0.010038079 -0.0051686335 0.018429037 0.034294605
-0.008403537 -0.023742575 0.014085572 0.017589923 -0.026967898 0.018509747 -0.03288648 -0.014722415
-0.039949432 -0.032812458 0.015647829 0.018373178 -0.010663464 -0.0279446 0.033253405 -0.034923077
-0.0064666616 -0.0115324985 0.003437899 -0.031205017 0.015748464 -0.03368844 -0.014378667 -0.022359163
-0.012085664 -0.03295732 0.0056841616 0.00796652 -0.025846547 0.024621023 -0.036385585 -0.01649634
0.006837124 -0.037580915 0.02185397 -0.039814193 0.0028918746 -0.02073346 0.023913842 0.024212306
0.010666665 -0.0046484005 -0.027953487 -0.0049413894 0.009745276 0.0040841363 0.023404174 0.006569974
-0.018667784 -0.009189764 -0.023345549 0.0018208538 0.006307319 0.015866494 0.012933827 0.0005035451
-0.013642549 0.00070343516 -0.029698474 0.024298472 -0.009574056 -0.025280233 -0.011935187 0.017438417
0.0071252724 -0.0022207259 0.02127351 -0.022540338 0.003752408 0.0040410254 0.00033284022 0.025423888
-0.014256879 -0.02632235 -0.005901072 0.0018286668 0.013976842 0.013874341 -0.016939994 -0.02137651
0.008288078 -0.0035777194 -0.03439413 -0.015269139 0.027269954 -0.015467614 0.024042793 -0.0128570115
-0.033666164 0.007854787 -0.01877576 0.0007341042 -0.034479085 0.014120082 0.013791359 -0.0092255715
0.029652003 -0.00182329 -0.022893434 -0.024940187 -0.024994902 -0.010897048 -0.0040523596 -0.009585679
0.025772106 -0.02171462 -0.011597937 -0.011379907 0.008777302 0.014745996 0.021291705 0.023208402
0.00586409 0.018438417 -0.034311567 0.030406306 -0.008780894 0.0055104927 -0.02855027 0.0062494786
-0.021910409 -0.03515046 -0.037439678 -0.03363825 0.019747907 -0.019828575 0.0016340896 0.01123622
-0.025020782 -0.020351594 -0.003230394 -0.017285068 -0.012593364 0.0060801096 0.026777089 -0.025994956
0.027494097 0.023660243 -0.021312809 0.0049943826 0.0052072913 0.011013015 0.016516298 0.0037881152
-0.036868934 -0.034886733 0.02825451 9.356724e-05 -0.026794795 -0.024513088 -0.010647064 -0.0036397593
-0.013007056 0.008787602 -0.039393153 -0.034235317 -0.010812484 0.017096387 0.007610829 0.02500752
0.0305822 -0.030594768 -0.00035535172 -0.010122444 -0.01979628 0.021518515 0.0046729655 -0.015068528
0.015413519 0.00883518 -0.0010089685 -0.016641682 0.032728523 0.008092343 -0.019095136 -0.027894283
0.021666387 -0.012553544 -0.0016132682 0.0006472528 0.0013758508 0.003072721 0.012821731 -0.009344082
0.0060111717 -0.004001572 -0.024140883 -0.013947466 -0.028322242 0.013861809 0.012585901 -0.023437764
0.021044618 9.564723e-05 0.022287553 0.004106465 -0.03615832 -0.0292745 0.031516664 -0.029049855
0.014598074 0.014729044 0.0056931847 0.0022962186 0.0041296794 -0.0062355157 -0.020509087 -0.0038890084
0.023559822 0.005872223 -0.030088224 0.0022923409 0.018125273 -0.021259936 -0.03056282 0.0027210228
-0.017128209 -0.013917506 0.004725896 0.01299163 0.0111279795 -0.022285927 -0.030698266 -0.019705713
0.0063797096 -0.022656817 -0.002820964 -0.003774314 -0.028419204 0.009010435 -0.04027453 0.016907077
-0.0103635015 -0.02436048 -0.033880875 -0.040127724 0.009761216 -0.035500225 -0.0055333306 -0.00075244356
-0.032189727 0.004129206 0.007439796 -0.020207027 0.032345977 0.035391774 0.019388363 -0.036264744

fc1.bias f4 [128]
00000000: 452a a7bc 5d6a cd3c 98a4 2dbd dabc f03d
00000010: 0a89 96bc caeb c7ba b2a8 bdbc 2dc2 9abe
00000020: b85e d33e c2a2 be3e 76dd 72be 2e3d 0cbd
00000030: b61c 7b3d 1d10 773f 0c03 1f3d 87a4 88bd
00000040: 4dac 14bd 3483 da3e ce5f 78bd a1ab bdbe
00000050: 4bcc d03c 81cc 00bc 0cce 273f f412 df3b
00000060: eeb3 a2bc a489 163c ec7d 293c 0179 8abd
00000070: deb7 853d 66d9 62bc c123 21bf aa1f fb3d
00000080: f059 56bc 75c9 07bd 3570 28bd 341f 17bc
00000090: 58ed a4bf 9cab a4bc 87f9 bdbd 83a8 d0bd
000000a0: 1bdd 36bc b8c7 05bd 759b 7bbe 33d6 c53d
000000b0: 247e 4fbd a937 40be 91c1 cdbb dcb1 18bd
000000c0: e033 b8bc 3110 4cbc 069c 3dbe 4eae 043f
000000d0: 7715 7abd 5420 49bf e4d1 e23b 8cf3 a6bc
000000e0: 593c 79bc 74bd 7a3c e205 0aba 518f d53c
000000f0: 1a9d 17be 7385 72bd 2445 e1bd 764b 88bd
00000100: dab7 4e3f 5022 93bc ea9e 913c c996 90bd
00000110: d46e 65bd 2b7b 6bbd 8690 cfbb 76ca 2b3f
00000120: 7875 863c 7da9 0bbf cfe1 10bd 3e87 b8bd
00000130: 9de6 28bd 2638 87bf 03a5 233c b4a6 b03e
00000140: 2463 6d3c cfed 463b ebbc de3e 3ff8 043f
00000150: 5b17 08bd 5720 5fbd a47f d4bc 376b 1fbe
00000160: c04d d33e 79d0 6abd f382 393c abc9 01bd
00000170: f16b 0dbc b2ae 863e f7f0 163c fa29 0f3d
00000180: fbbb 07bd d248 88b9 2ed5 cf3b 5c81 c63d
00000190: 5cb4 b53e 409b 19bd 125e 2bbd e875 793e
000001a0: 41de e1bc de3b d0bc 70ad 7bbc 9713 20bb
000001b0: ee82 bb3b 5793 eebe 7cfc 89be 3b84 50bd
000001c0: 08a8 eebc b533 06be e94c 97bc 5143 973c
000001d0: 38d7 be3c 2bf3 d23e 29f6 83bd 7871 c13b
000001e0: 0f04 703d b80c 333e 4412 10bd cbb6 003d
000001f0: 109b 6939 e561 25be cde1 efbd 3426 13bf
-0.020405898 0.025075132 -0.042393297 0.117547706 -0.018375892 -0.0015252766 -0.02315173 -0.3022627
0.41283202 0.3723355 -0.23717293 -0.034238033 0.061306678 0.9650896 0.038821265 -0.06672006
-0.03629713 0.42678225 -0.06063824 -0.37045005 0.02548804 -0.0078612575 0.6554878 0.0068076793
-0.019861188 0.0091880895 0.0103449635 -0.06761361 0.065292105 -0.013845777 -0.6294518 0.12261899
-0.013082966 -0.03315111 -0.041122634 -0.009223748 -1.2884932 -0.020101361 -0.09276109 -0.10188391
-0.011161114 -0.03266117 -0.24571021 0.09659996 -0.050657406 -0.18771233 -0.0062791784 -0.037278995
-0.022485673 -0.012455032 -0.1851655 0.5182847 -0.061055627 -0.78564954 0.0069219936 -0.020379804
-0.015212142 0.015303958 -0.0005265159 0.026069315 -0.14806023 -0.0592093 -0.10999516 -0.06655018
0.80749285 -0.017960697 0.017775971 -0.0706001 -0.056013897 -0.05749051 -0.006334367 0.67105806
0.016413435 -0.54555494 -0.035371598 -0.090101704 -0.041235555 -1.056401 0.009988072 0.34502184
0.014488969 0.0030354147 0.43503508 0.51941293 -0.0332254 -0.0544742 -0.02593977 -0.15568243
0.41270256 -0.05732772 0.011322725 -0.031686466 -0.008631692 0.26305157 0.009212724 0.03495214
-0.033138257 -0.00025994197 0.0063425517 0.09692642 0.35489166 -0.037501574 -0.04183776 0.24361384
-0.0275718 -0.025419172 -0.015361175 -0.002442574 0.005722395 -0.46596786 -0.26950443 -0.050907355
-0.029132858 -0.13105662 -0.01846929 0.018464716 0.023295984 0.41201147 -0.06443436 0.005903419
0.05859762 0.1748532 -0.03517367 0.031424325 0.00022278377 -0.16150625 -0.1171299 -0.5748017

fc2.weight f4 [64, 128]
00000000: b653 ddbc 206a 7fbb 1c75 073d 7a48 cabd
00000010: fea1 6abd bfcf e03c a3af a9bd 7b5e 4bbe
00000020: ed60 873e 0740 fb3d 7f3d 2a3e eda4 493d
00000030: 8ec2 9c3d 8438 e2be 64ef 74be e46b 1bbf
00000040: 5140 8dbd 54d1 09be b200 efbd 816a a7bd
00000050: 025a 39bc 3a83 e2bc b8c7 d3be 984d 38bd
00000060: b516 fd3c 907f 92bd 1371 8dbd 8b62 96bd
00000070: 1f7f c3be 76d5 a1bd 68a0 253e 6c3b 23be
00000080: ec22 8e3c d9bd 05bd aeff 003d 68a8 853d
00000090: 8c05 31be c453 953c ff04 d3bd ef22 513e
000000a0: 438b 233d e09b a8bd 1c9e 093f 60e0 de3d
000000b0: 474f c93c da1d b03e 7847 223d e221 b53d
000000c0: 704b 01bc 1974 cc3a ff51 293e f329 2ebf
000000d0: 5bd0 fa3e 8dfa 3b3f 04a7 efbc 730c 853d
000000e0: 9ed1 703d b7db 17bd 3a87 743d 6057 92bc
000000f0: cb57 a23e 0d07 a8bd 7a5a c53d c61a 003d
00000100: ac24 32bf f9b0 85bb 6d5e 8f3d c31b 303c
00000110: 98f2 fc3c df1a f63d 0091 03bc 305c 10bf
00000120: a0e0 863d 05c4 f73d e8a8 843c c44c b23e
00000130: afbf d0bd aaaa 1fbe bebf 133d e606 cfbe
00000140: 369d 6a3d b4ae babd 6aae 2ebe 5915 f7bd
00000150: ee4d 1fbd 7f86 5bbc 30d9 a2bc 903b d93e
00000160: 4810 de3c 35b8 8f3d d9dd 8abd 20f2 d2bb
00000170: 1a2f 99bd eb6f 5dbc 2793 22bd 67cf 3c3f
00000180: f4e3 103f 9cbf 9bbd 238f 1a3d d685 70bd
00000190: bdc5 0abf b17a 3c3e 758f e23c bdad 3c3e
000001a0: 1d6f a9bd 6c58 cf3c adf9 a7bd f937 9a3d
000001b0: 8cc9 7dbd d1da fbbd 3a8d 78be 8455 28bc
000001c0: 5351 a0bd 893e 203e 5038 cabc aac9 fcbc
000001d0: 0083 4a3d 2bbb 8d3e c4cf f9bc 82f2 5fbc
000001e0: 6a4e 5e3c 035d ba3e 999f 11bd 9381 9f3c
000001f0: 5815 363b d402 833e d17f a1be 9313 72bd
00000200: 661a 58bd 9ff4 babd dca4 b2bd 252a 173f
00000210: 50cc a7bd 99dc d8bc 9b71 963d 8d2f e03c
00000220: f043 ec3d 4524 4d3e 5d8f 77be c5a8 1b3e
00000230: 1e56 2b3d 7dbd a33e 073c 9e3e 1e67 053e
00000240: 2af8 1a3d 67b7 163f ff73 383d a136 c93d
00000250: 8070 f33b a1a3 56bd 4763 a73e 7e20 8b3d
00000260: a0c8 8ebb 6c92 e6bc eac4 9c3c 92ca abbc
00000270: 422e 5a3e 2706 9d3d 80b4 8fbd 8303 463f
00000280: b2a1 2fbe 649d c3bc bf12 62bd f6cc 753d
00000290: 6764 93bd 3f39 dc3d 8928 423e 9d61 903e
000002a0: c109 0dbd f8d1 03bc f4a5 bdbd b71b b8bd
000002b0: a17a a63d fed3 1dbe 4efc 1b3d 2586 54bd
000002c0: 4129 a5bd 69a6 363d a2b1 573e 79d5 3fbf
000002d0: 2037 eabd d3b4 a13e f24c 8abd 17f3 72bd
000002e0: 773c 993d 78a1 913c 95f7 16bd 082d 3a3d
000002f0: 2264 61be 8026 383b 3439 4bbd edf2 4d3e
00000300: b739 ab3f 7340 ab3d 60d7 3c3b e987 933d
00000310: e088 e73c 36c7 20bc 4167 9c3c 3732 ce3e
00000320: 468e 0dbd fb4f d53d ad16 9e3d 86b8 4abd
00000330: 8026 40bd a9b4 ae3e 5cc2 b63c d914 383f
00000340: 604a d1bb 333a 58bd 2bb3 38be f18a f83e
00000350: 3964 ed3b c882 9fbd c68f ae3b 3d5d cabe
00000360: 2733 5a3d 787c 25bd 15fa a83d 12e8 b03b
00000370: 7de8 9f3d 312f 313f 8f9c 953d cccd 0fbe
00000380: f7b0 143e 3279 843d 40b8 b93c 7746 83bd
00000390: 44fc 973e f520 67be 6030 3c3c 654e 8f3e
000003a0: 636f 7c3d 908e e53c 042d 86bd 5c3b e2bc
000003b0: 77d6 e0bc 108f 5dba db48 633e 6002 c6bc
000003c0: 4d1f ca3c 6a10 173e e167 3bbd cde3 59bd
000003d0: c6a7 343d bbcf 563f e6e4 2e3d 9a49 763d
000003e0: 4e37 b33d 1aa5 c9bd 5094 253d 9961 12bb
000003f0: 1015 f63d 59c7 d9bc 1b45 333f 8c69 e1bd
-0.027017456 -0.0038973168 0.03307067 -0.09877105 -0.057283394 0.027442811 -0.08285453 -0.1986026
0.26441136 0.122680716 0.16625021 0.04922955 0.07654296 -0.44183743 -0.23919445 -0.60711503
-0.06897033 -0.13458759 -0.116700545 -0.08174611 -0.011312963 -0.027650464 -0.4136331 -0.044995874
0.030894617 -0.07153237 -0.06906333 -0.07343014 -0.38182923 -0.079020426 0.16174471 -0.15940636
0.017350636 -0.032651756 0.031493835 0.065262616 -0.17287272 0.01822842 -0.10303687 0.20423482
0.039927732 -0.08232856 0.5375688 0.1088264 0.024573935 0.34397775 0.03961894 0.08844353
-0.007891521 0.0015598565 0.16535185 -0.6803276 0.48987088 0.73429185 -0.029254444 0.06496515
0.058793657 -0.03707477 0.059699275 -0.01786393 0.31707606 -0.0820447 0.09636398 0.031275533
-0.69587207 -0.0040799347 0.07000432 0.010748806 0.030877396 0.12016844 -0.008030176 -0.56390667
0.065858126 0.12097935 0.016193822 0.34824193 -0.10192811 -0.15592447 0.03607153 -0.4043495
0.057278834 -0.09115353 -0.17058721 -0.120646186 -0.03889268 -0.013398766 -0.019878954 0.42428255
0.027107373 0.070175566 -0.06780595 -0.006437555 -0.07479687 -0.013515453 -0.039691117 0.7375397
0.5659783 -0.07604906 0.037734162 -0.058721386 -0.54207975 0.18406178 0.027656296 0.18425651
-0.08273146 0.025310718 -0.08201919 0.07530207 -0.06195979 -0.12297595 -0.24272624 -0.010274295
-0.07828011 0.15648855 -0.024685055 -0.03085788 0.049441338 0.2768186 -0.030494578 -0.013668658
0.0135685 0.36399087 -0.035552595 0.019470965 0.0027783718 0.25588095 -0.3154283 -0.0591007
-0.05275955 -0.09128689 -0.08722851 0.5904868 -0.081932664 -0.026472377 0.07345887 0.027366424
0.115363955 0.20033367 -0.24175783 0.15201099 0.041830175 0.31980506 0.30905172 0.13027617
0.037834324 0.588736 0.045032497 0.09824873 0.0074291825 -0.052402142 0.3269293 0.06793307
-0.0043574125 -0.028145991 0.019136865 -0.020970616 0.21306708 0.07667189 -0.070168495 0.7734911
-0.17151526 -0.02387876 -0.05519366 0.06000992 -0.071968846 0.10753106 0.18960775 0.28199473
-0.03443313 -0.008045666 -0.09260169 -0.08989661 0.08128858 -0.154129 0.038082413 -0.051885743
-0.08064509 0.044592295 0.21063855 -0.7493511 -0.114362955 0.3158327 -0.067529574 -0.05931386
0.07482236 0.01777719 -0.036857206 0.0454531 -0.22010854 0.002809912 -0.0496151 0.201122
1.3376988 0.08361902 0.0028814897 0.07203657 0.02826351 -0.009813121 0.019092204 0.40272686
-0.03455951 0.10415646 0.07719169 -0.04949238 -0.046911716 0.34122208 0.022309475 0.7190681
-0.00638704 -0.052789878 -0.18037097 0.48543504 0.0072446135 -0.077886164 0.0053271977 -0.3952426
0.05327144 -0.040401906 0.08250824 0.0053987587 0.078080155 0.69212633 0.07305252 -0.14043349
0.14520632 0.06468429 0.022670865 -0.064099245 0.2968465 -0.22571166 0.011486143 0.27989498
0.061629664 0.02802208 -0.06551555 -0.027616195 -0.027446015 -0.0008451799 0.22195761 -0.024171054
0.024673129 0.14752355 -0.045753364 -0.053195763 0.044105314 0.8391072 0.042698763 0.060128786
0.08750783 -0.09845944 0.040424645 -0.0022336005 0.12015736 -0.026584314 0.7002732 -0.110064596

fc2.bias f4 [64]
00000000: 9ccc b0bf bbf5 f63e 091c bbbe 01d2 dfbd
00000010: fcfc 99be fe5d e7bd 91e0 f33e c06d 993f
00000020: 60b6 513f 53d7 00bf 0bf9 113f bf7d 5e3e
00000030: 4e05 20bf 1f3c 1f3e 37da dc3e cfee e33d
00000040: 2861 103d 4425 dd3e bcdc 49bc b152 90be
00000050: 1667 32bf 3920 d3bc 308a 993f 9ef9 6fbb
00000060: 6e84 0d3f 8d48 963f ad4e 383d 35c4 51be
00000070: e51b 72be e893 20bf ce34 02be dc83 abbd
00000080: dd60 99bd dfea 4dbf 51c8 12bf 5e82 51bf
00000090: ae6c 70ba 61cf dfbd 6076 d5be 1077 dd3d
000000a0: 7e03 063f 4230 4cbe 3c93 533e 1dc3 64be
000000b0: d77f 11bf 06e1 c3be 5ff7 f5be f890 833e
000000c0: f403 b3be e4d3 e9bc 09e6 9e3d d553 f3bd
000000d0: 726d fabe b937 dcbe 21f7 2b3f 0b36 9ebe
000000e0: 37d4 4dbe 783f 97be cf8f e5be 0f3d 5dbd
000000f0: cc6d 2b3f 3253 22be e569 11bf 0297 82be
-1.3812442 0.48234352 -0.36544827 -0.10928727 -0.30075824 -0.112972245 0.47632268 1.1986618
0.8191891 -0.5032856 0.57020634 0.21727656 -0.62508094 0.15550278 0.43135235 0.111295335
0.035248905 0.43192494 -0.012320694 -0.2818809 -0.69688547 -0.0257722 1.1995296 -0.003661729
0.55280197 1.1740891 0.044996906 -0.20485003 -0.23643453 -0.6272569 -0.12715456 -0.083747596
-0.07489178 -0.8043651 -0.5733691 -0.8183955 -0.0009171468 -0.10928226 -0.41691875 0.10813725
0.5234908 -0.19940284 0.20661634 -0.22340055 -0.56835693 -0.38257617 -0.48040292 0.2569654
-0.34963953 -0.02854342 0.077587195 -0.11881224 -0.48911625 -0.43011263 0.67173964 -0.30900607
-0.20100485 -0.2954061 -0.4483628 -0.05401331 0.6696441 -0.15852049 -0.5680221 -0.25505835

fc3.weight f4 [10, 64]
00000000: 31c7 a8be 74b9 e6be 1504 29bf a7e9 e4be
00000010: e045 08bf 177a 5abf d6e0 03c0 8fa0 b73d
00000020: 88b7 abbe 9d65 55bf 9543 8dbd 6c29 82be
00000030: 5d69 12bf 4caf 9dbf b666 10c0 f48a bdbe
00000040: b3ce 2cbf 3a4b 74bc 407e b0bd 5c6c 19bf
00000050: 23a7 86be e48a fc3e 8f73 f5bd 2e18 3fbf
00000060: 7141 20be aac5 dcbe f89d 91bf 03a3 86bf
00000070: bfef 18bf e2d2 26bf 85d6 8abe cb53 45bf
00000080: 2029 5abf 1488 9abf 7fcf 86bf 126e 95bf
00000090: 9ad7 62bd 3263 3dbd 75a2 c9be e954 25bf
000000a0: 56c2 03bf b7be bebe 0894 35be 0eb1 19bf
000000b0: 52f6 9ebe c868 97be 7384 d0bf 5ccf cebe
000000c0: fa4f 45bf 1c22 d7be ec4b d1be 36a0 073c
000000d0: 6fc7 aabe e054 61bf a464 38bd 6b39 26be
000000e0: 6e10 aabe f1ca 68bf e3b4 84bf c21f 83be
000000f0: 7a4f 3abe ce60 62bd c3db 8bbe d0b2 a1bc
00000100: 1168 b5bf 9648 91bf b954 16c0 c8e4 23be
00000110: f722 5dbf 8ba3 073f 1d3f f5bf c61b d2bd
00000120: 0110 ccbe 90ab 8fbf 1e6f 5fbf 3ccc 92bf
00000130: 80b1 e5bf b44b 24bf 1b56 53bf d861 1ac0
00000140: b264 cebf 2e0a 01bf b7b8 4ebe f456 80bf
00000150: 9c7b a3be 7df5 3cbf 7f1f e1bf b312 64bf
00000160: 1763 05bf 60ac 18c0 e81b a5bf f5a5 d2be
00000170: c6f9 42bf 0c48 2cbf ce60 f4be 66e2 82bf
00000180: 0acc ce3e aa28 1b3e dd01 043e 8d80 98be
00000190: d9da 2dbd 56f9 e2bd 7222 ecbd 3c6f 9abf
000001a0: 5b8a 2a3e 5153 c1bf 6750 b3bf faa5 ed3e
000001b0: dce9 d9bf 8952 49bf 62d7 573e 6402 ebbd
000001c0: 3e83 fbbf 4fab 79bd 4e42 02bf a5d3 023c
000001d0: 8f81 8b3e ed93 8c3e e92c e1bf 39d1 90bf
000001e0: 0a24 97bf d124 5bbe 6145 d3bf 291e b2bf
000001f0: 4edb 09c0 4e31 c7bf 147e 62bf 86be 06bf
00000200: 0c1d 09bf 3f5c d5bb fd4b 93bf 4c28 dbbf
00000210: be15 873d 7fac aabf 8eac 2ac0 c437 42bf
00000220: c89c 2abf 1af4 03be 5035 0d3d 01f2 09bf
00000230: 3afd 8ebf 82b5 4abe 517a a4c0 bf22 b0bf
00000240: c96a 80bf ee72 09bc 6840 32be b549 b3be
00000250: 8429 77bf 440a 9cbf a38b a6be 1a34 8dbe
00000260: ae3a ffbf c35c c1bf 049d 8dbf e49b 8fbf
00000270: e992 b5bf 11c6 4fbf 9ce3 eabd 7db2 7cbf
00000280: cfb6 f63c 92c4 81bf e198 dfbe 5b13 50be
00000290: 0d2b 1fbe e36d c8bd e000 5bbf 6498 7cbe
000002a0: 0503 95be 54dd cabd ed34 40bc f70b 02bf
000002b0: f008 21c0 2407 a2be a15e e1bf 27e8 8cbf
000002c0: de32 10c0 7a94 83be 9a8a dcbf ba94 aabd
000002d0: 3367 a7bf 3fbc 91bd f780 eabe 8d25 78bf
000002e0: 20c6 babf e602 3abd f029 13bc abfb 10c0
000002f0: b9e5 a2bf 1434 65bf 17a4 55bf 5a4d b7be
00000300: 69ee 7ebf cfd1 173e 7bf9 adbf 6624 5f3e
00000310: ff89 96bf b8f3 90bf 4380 52bf d753 86be
00000320: 1a3c bebd 537b 40bf c732 343c 388f 2fbf
00000330: 3455 23be 2098 e4bd 3682 9dbf a071 72bf
00000340: bbe6 bcbf ae76 9abe 44c0 5fbe 104d 97be
00000350: d438 2e3c bf00 c2bf 9a53 dcbe 84a9 dcbe
00000360: cac4 4bbf 1147 e0bf 7662 ecbd 1c51 1cbf
00000370: 33c9 8abe 644c a3be 3ff5 54be 1570 ce3e
00000380: 9d8c 1cbf 205f c6be 28cf b3bf 0ee6 25c0
00000390: cefe a63c db08 23bd 8092 d5bf 0a2b 403e
000003a0: 9cc8 073d c61f 10bf 44ad 6dbf 1045 47bf
000003b0: 582c bebf 8a55 00bf eefe c0be 42b1 ccbe
000003c0: 4eb8 42c0 a9d4 0c3b 4271 72be 99dc b1bd
000003d0: daca 85bf ea02 a3be 3769 1ac0 898c 8cbf
000003e0: cd56 8fbe 39f5 7fbf 40e3 1fbe 3980 96bf
000003f0: d54a 11bf ab24 a1bf 9d18 1ac0 b3b4 65bf
-0.3296447 -0.45063365 -0.66021854 -0.44709513 -0.5323162 -0.85342544 -2.060598 0.08966171
-0.3353846 -0.83358175 -0.06897656 -0.25422227 -0.5719202 -1.2319121 -2.256269 -0.37020075
-0.675029 -0.014910514 -0.0861783 -0.5993097 -0.2629939 0.49324715 -0.11984932 -0.7464627
-0.15649964 -0.43119556 -1.1376333 -1.0518497 -0.59740824 -0.6516553 -0.2711679 -0.7708098
-0.85219 -1.2072778 -1.0532073 -1.1674216 -0.055381395 -0.04623718 -0.39381757 -0.6458269
-0.5146841 -0.3725488 -0.1773225 -0.6003579 -0.31047302 -0.2957213 -1.629042 -0.40392578
-0.7707516 -0.4201821 -0.40878236 0.008277943 -0.3335528 -0.88020134 -0.045017853 -0.1623284
-0.3321566 -0.90934664 -1.0367702 -0.25610167 -0.1819438 -0.0552681 -0.27316102 -0.019738585
-1.4172384 -1.1350276 -2.348921 -0.16005242 -0.8638148 0.5298392 -1.9159886 -0.102592036
-0.3985596 -1.1224232 -0.87278926 -1.1468577 -1.7944794 -0.64178014 -0.8255326 -2.412222
-1.612448 -0.5040616 -0.2018765 -1.0026536 -0.31930244 -0.73812085 -1.7587737 -0.8909103
-0.52104324 -2.385521 -1.2899141 -0.4114224 -0.76162374 -0.67297435 -0.47730106 -1.0225341
0.40390044 0.15152231 0.12891336 -0.29785576 -0.042445038 -0.11082713 -0.115300074 -1.2065196
0.16654341 -1.5103551 -1.4008912 0.46415693 -1.7024493 -0.78641564 0.21078256 -0.11475065
-1.9649427 -0.06095439 -0.5088242 0.00798503 0.27247283 0.27456608 -1.759183 -1.131385
-1.1807873 -0.21400763 -1.6505548 -1.3915454 -2.1540103 -1.5561922 -0.8847363 -0.52634466
-0.53559947 -0.0065112407 -1.1507565 -1.7121673 0.06595944 -1.3333892 -2.666782 -0.7586634
-0.6664548 -0.12886086 0.03447467 -0.53884894 -1.1171029 -0.19795802 -5.139931 -1.3760604
-1.0032588 -0.008389218 -0.17407382 -0.35017172 -0.9654772 -1.2190633 -0.3252841 -0.27578813
-1.9939783 -1.5106434 -1.1063542 -1.1219449 -1.4185458 -0.811616 -0.11469194 -0.9870985
0.030116467 -1.0138113 -0.43671325 -0.20319884 -0.15543766 -0.09786584 -0.8554821 -0.24667507
-0.29103866 -0.09905496 -0.0117313685 -0.50799507 -2.5161705 -0.31646073 -1.7607003 -1.1008347
-2.2531047 -0.25699216 -1.7229798 -0.083291486 -1.3078369 -0.07115983 -0.45801517 -0.969323
-1.4591713 -0.04541292 -0.008982167 -2.2653606 -1.2726356 -0.8953259 -0.83453506 -0.35801202
-0.99582535 0.1482613 -1.359176 0.21791229 -1.1760863 -1.1324377 -0.8222696 -0.2623584
-0.09288807 -0.7518818 0.010998434 -0.6857791 -0.15950471 -0.11161828 -1.2305362 -0.9470463
-1.4757913 -0.3016867 -0.21850687 -0.29550982 0.010633666 -1.5156478 -0.43032533 -0.4309808
-0.7959715 -1.7521688 -0.115422174 -0.61061263 -0.27106628 -0.3189422 -0.20796679 0.40319887
-0.6115206 -0.3874445 -1.4047594 -2.5921664 0.020385172 -0.039803367 -1.6685333 0.18766418
0.0331503 -0.5629848 -0.9284251 -0.77839756 -1.4857283 -0.5013052 -0.37694496 -0.39978987
-3.042499 0.002148906 -0.23676017 -0.08684654 -1.045253 -0.3183816 -2.4126718 -1.0980388
-0.2799591 -0.99983555 -0.15614033 -1.175788 -0.5675481 -1.2589315 -2.4077523 -0.8972885

fc3.bias f4 [10]
00000000: 8b71 8abc a49f 14bf 1410 db3e 8138 0c3f
00000010: 2bd5 67bf db33 713f 8fb2 9e3e ce3c de3e
00000020: b911 48bf bf6f d1bf
-0.016899845 -0.5805609 0.42785704 0.5477372 -0.90559644 0.9421975 0.30995604 0.43405765
-0.7815204 -1.6362227
