Homework2/model.pth (torch, 439367 bytes, 6 tensors)

fc1.weight f4 [128, 784]
00000000: c923 0d3d a5dc f1bc d257 71bc b5e5 81bd
00000010: 5c33 89bd 64f3 2bbd 1226 e93c a194 babc
00000020: ce30 a6bb 5821 23bd ec9a 26bc 33cb e7bc
00000030: d376 17bb 77a9 b83c 7762 76bb 75a6 16bd
00000040: 754d 4c3b 5e23 78bc 37ea a13c 2698 4f3c
00000050: f18d b8bc 696b c4bc 88a5 a9bc d0e2 08bd
00000060: 935b 0cbd 60a8 393b 5f19 00bd 0e68 bf3c
00000070: 9dd3 0fbd 6063 3ebb d042 1cbb 0fd2 74bd
00000080: 3ceb 1dbd 8810 c5bb 8ece 84bc 9ae4 81bc
00000090: a187 f1bc 1bae 263c de94 debc face 593c
000000a0: 21c2 e4bc 792e 8e3b d41c 4abd 5727 963b
000000b0: d7eb 3cbc ad54 0bbd 442b 93bb 247c 223b
000000c0: fc9d 07bd fc67 35bd 2e7d 7dbd d12c 2cbd
000000d0: 800a d2bc 038a abbc 39d6 0bbd 620f c93c
000000e0: 2757 94bc 1c9d 9f3c e4ab 04bd 88e9 f0bb
000000f0: a25d d7bb 0025 81bd f435 1fbd 5073 13bd
00000100: 917d 39bd 3882 20bd 0632 e5bc 7e5f 513c
00000110: 57ca 873b 2134 a0bc 8b33 bbbc 8785 ec3a
00000120: 722e a8bc 1ccb 0e3c 1543 78bb a973 a3bc
00000130: 8377 49bc 3dc8 2ebd a99f a6bd 89e9 03bd
00000140: 4c7f 97bc aee1 a2bc 802c 81bc c381 d1bc
00000150: 2d1e 0f3d 4ee1 aebb bdb6 56bd 53fc 10bd
00000160: 9768 66bd 8b01 89bd 6407 96bc fe9d 09bd
00000170: 5a97 02bd 2312 01bd 957f d4b9 9d84 94bc
00000180: cc04 98bc f0c8 a43c e032 f6b9 fff4 dfbc
00000190: 6165 40bd e230 883b f090 8ebc 6a9b 1fbd
000001a0: 3798 6d3c 5236 bbba 5297 44bd f41c 6bbd
000001b0: 7985 62bd 1317 b13c 1866 c1bc 528a 90ba
000001c0: 18fc 043c c01a 903a 7291 24bc 574c 5cbd
000001d0: 9162 52bc 8e0e 34bc ec9c 29bd 5893 6ebd
000001e0: 36f8 213c be4c febb de69 f8bc 3459 82bc
000001f0: ed75 643a 054f 31bd cfcc 66bd f8f8 66bc
00000200: d786 6f3c ab4c debc 974e 64bd b8c4 0fbd
00000210: cf1a 0abd dade 54b9 eeff f9bc 18bf 3dbd
00000220: fef0 77bd 4e32 1dbd 188d 38bc 9176 73bd
00000230: b67a c53c 9c5a 033c 7cd1 67bd 8590 063b
00000240: 4894 aabc e434 b0bc 89e1 b8bb 02dd 0cbd
00000250: 5872 eebc e4a3 923c c906 2fbd 61c3 deba
00000260: 2ad6 eebc b973 3cbc a9b7 29bc b939 e8bc
00000270: 9170 0dbc 485c 18bc 1645 41bc abd3 f0bc
00000280: 6332 253b 8e76 e7bc 3145 17bd c39e 92bd
00000290: 0e23 23bd 524a 76bd 78c6 503c 3a2d bd3c
000002a0: fe2b fa3c 6262 debc d660 82bd 8816 71bd
000002b0: 7401 b8bd 01b6 87bd 6966 6bbd 3700 aabc
000002c0: 1fef f0bc 2f8b be3b ad40 bbb8 6d4c 17bd
000002d0: 26e8 0b3c be44 40bc d5b5 f7bc 034b 7cbd
000002e0: f9cd 21ba c546 17bc 3298 26bd cecd 17bd
000002f0: e1bb 833b d016 65bd 7fc4 28bd 1924 07bd
00000300: cc48 4fbd 2b7a 42bd ea83 0b3d 6efe da3c
00000310: 8905 d5bb aa2e e4bc 1950 0bbd 0d98 fabc
00000320: 577e a0bd 4b3e 9dbc 1d0c dfbb 7254 13bd
00000330: 4d70 2ebd 8080 cbbc 8604 47bd 67d4 e8bc
00000340: 278b 2dbd 570b eb3b ef74 61bd 42a2 51bb
00000350: be75 6fbd 7b61 6cbd 24fa 73bc f02c 923c
00000360: 607b 1bbd bd76 13bd d87c 3bbd c8c0 76bd
00000370: 4fa0 e5bc ec0a 88bd fdcc 34bc 2ad9 fa3c
00000380: 0890 883b 86b5 fc3c c88a 3bbd bfc1 79bc
00000390: c47f d6bc d3ae 48bc 1e12 4bbd 8dec 2bbd
000003a0: 18d4 ebbc a616 24bd 55cf 62bd 5e22 34bd
000003b0: 989d c9bc 1e79 d6bc 32b5 003c f68f bbbb
000003c0: 08ee a43b ac3e 17bd ea0c 7ebd 25f4 19bd
000003d0: dc4a bfbc f2d9 e43a 2a07 36bc 2c2c e8bc
000003e0: 14dc 5abd 4fb5 4ebd b5b4 783b fd6b a8bc
000003f0: e006 343c 8915 62bd db75 d1bc 812e 8abd
0.034457956 -0.029524157 -0.014730411 -0.06342641 -0.06699249 -0.041980162 0.028460536 -0.02277595
-0.005071736 -0.03982672 -0.010168772 -0.028295135 -0.0023111596 0.022541745 -0.003759531 -0.03677984
0.0031174098 -0.015145151 0.019765003 0.012670552 -0.02252862 -0.023976998 -0.020708814 -0.03341943
-0.03426702 0.002832912 -0.031274196 0.023365047 -0.03511392 -0.0029050931 -0.0023843534 -0.05977064
-0.038554415 -0.0060139336 -0.016211774 -0.015856076 -0.029483618 0.010173346 -0.027170595 0.013293976
-0.0279246 0.004339036 -0.0493439 0.0045823264 -0.011530838 -0.0340163 -0.0044912416 0.0024793232
-0.03310965 -0.04428862 -0.06188696 -0.042034928 -0.025639772 -0.020939833 -0.034139846 0.024543468
-0.018107964 0.019484095 -0.03239049 -0.007352058 -0.006572441 -0.06305885 -0.038869813 -0.035998642
-0.045285765 -0.039186686 -0.027977955 0.012779115 0.004143994 -0.019556107 -0.022851726 0.0018045165
-0.02052996 0.008715417 -0.003788178 -0.019952612 -0.01229656 -0.04267143 -0.081359215 -0.03220514
-0.018493317 -0.019883003 -0.01576829 -0.02557457 0.034940887 -0.005336917 -0.052420367 -0.035396885
-0.05625209 -0.066897474 -0.018314071 -0.03359794 -0.03188262 -0.031511437 -0.00040530847 -0.018129641
-0.018556975 0.020115346 -0.0004695868 -0.027338503 -0.046971682 0.004156218 -0.017403096 -0.038966574
0.014501623 -0.0014283156 -0.047995873 -0.05740066 -0.05530307 0.021617448 -0.023608252 -0.0011027551
0.008116744 0.00109943 -0.0100444425 -0.05378374 -0.012840883 -0.010989798 -0.041409418 -0.058245987
0.009885838 -0.007760613 -0.030323919 -0.015911676 0.0008715082 -0.04328825 -0.056347664 -0.014097445
0.014619551 -0.027136168 -0.05573901 -0.035099715 -0.033716973 -0.00020300914 -0.030517545 -0.04632482
-0.060532562 -0.038378052 -0.011264108 -0.059439246 0.024106365 0.008017208 -0.056596264 0.0020532918
-0.02082266 -0.021509595 -0.0056421203 -0.034390457 -0.029107258 0.017900415 -0.04273108 -0.0016995483
-0.029154856 -0.0115022 -0.010358729 -0.028347837 -0.008632795 -0.009299345 -0.0117962565 -0.029397806
0.0025207035 -0.028254773 -0.03693122 -0.07159188 -0.039828353 -0.06012947 0.012742631 0.023092855
0.030538555 -0.027146522 -0.06366126 -0.058859378 -0.08984652 -0.06626511 -0.057470713 -0.020752056
-0.029410897 0.005814932 -8.928902e-05 -0.03693812 0.008539235 -0.011735139 -0.030238071 -0.061594974
-0.0006172355 -0.009233181 -0.04067249 -0.037061505 0.0040201996 -0.05592996 -0.04120302 -0.03299341
-0.050606534 -0.04747979 0.03406135 0.02673265 -0.006500904 -0.027854282 -0.034011934 -0.030590082
-0.078365974 -0.019194743 -0.006806864 -0.035969205 -0.042587567 -0.024841547 -0.0485883 -0.028421594
-0.042369034 0.0071729827 -0.055043157 -0.0031987582 -0.058461897 -0.057710152 -0.014891181 0.017843693
-0.037959456 -0.03600191 -0.045773357 -0.060242444 -0.028030543 -0.06642708 -0.011035201 0.03062113
0.0041675605 0.030848276 -0.04578665 -0.015243947 -0.02618397 -0.012248713 -0.049577825 -0.04197364
-0.028787658 -0.04006066 -0.05537351 -0.043978088 -0.02461128 -0.0261808 0.0078557 -0.0057239486
0.0050332583 -0.036925003 -0.062024035 -0.03758635 -0.023351125 0.0017459972 -0.0111101065 -0.028341375
-0.05343254 -0.050465878 0.0037949507 -0.020559305 0.010987967 -0.05519632 -0.025568893 -0.06747151

fc1.bias f4 [128]
00000000: 9bb9 a7bb 25a3 a3bc 755b 8a3c 76c6 0b3c
00000010: d9c4 273e 7d11 243f 514d d13e 49d9 503c
00000020: 7cf2 d1bc ec14 613e e4ee 913c c057 bcbb
00000030: ae6a 32bd 5ea0 653e f003 5fbd d4b0 883d
00000040: 9541 b2be a4b6 47bf d941 343f 254e a3bc
00000050: c814 063e 30f2 b43b 37ad 7bbc 5acb ea3e
00000060: 8d4e 1dbd 7b1a 8f3e 8f0a eabe 9841 22bb
00000070: 4e6b 52ba d2e8 bb3e 38a0 2bbf e155 99bc
00000080: 40ac 0bbf 2fdc 4d3d c069 9bbe 2c6d 2cbd
00000090: ba6a 9cbc c512 e5bb 9286 5b3c 928b 73be
000000a0: 80e9 353f 7f06 c83d f648 39bc d957 dbbb
000000b0: 40db a33c 8030 b13b 305f b93d 9c82 113f
000000c0: 8095 bbbc baa0 3c3e 97f6 4bbc 8c53 9dbc
000000d0: 927e 593e 9e25 453d c8d4 e1bc e7fd 813e
000000e0: 4e78 c8bc d1bb 473f d2ae 393e 2431 62b8
000000f0: 0f29 edbc ef1c a73e bbc3 d93c 9161 b63c
00000100: 37e4 80bc c894 143c b433 8cbd 7155 17bd
00000110: fdd9 90bc ab19 80bc 91fa ae3d 81b6 b13d
00000120: 420b 9abf 1c14 23be 667c f63a 5c7c d9bc
00000130: dcda c23c 4cb7 11bd 342f bb3e 00b5 45bc
00000140: 6b21 0d3f 9b48 f43e 865f 343c ddbc 5fbc
00000150: 560c 16bf b83b aebb 8ff6 fc3b 66b3 bc3c
00000160: 322a 7e3d 5c99 3fbe 5746 8ebc 0844 7fbe
00000170: 1fa1 0cbd e35f 163f 136b 66bd 0811 5f3f
00000180: 7fff 67bd 62ea 68bc b509 0b3c 25b7 5f3e
00000190: 578b 0fbd e7b8 20bd 5f32 05bd 64cd 52bf
000001a0: 8749 f83e da49 4c3c ab87 c43b ddd2 913e
000001b0: 3402 cc3a c553 c63e d6d8 e73c f6cc f4bc
000001c0: 79f9 29bf 6c53 d93e f62f 95be cd4d f2bb
000001d0: 65e6 c4bb c017 13bc db32 623e cc48 14bf
000001e0: bf9f 59bd 6946 0ebd 7895 083e 28b7 473b
000001f0: 8222 43bc ce2e 6b3c 0874 85bf ff3f bf3a
-0.0051185614 -0.019975254 0.016889313 0.0085312035 0.16383685 0.64089185 0.408793 0.012747117
-0.02562832 0.21980637 0.017814107 -0.0057477653 -0.04355877 0.22424456 -0.054447114 0.06674352
-0.3481566 -0.7801306 0.70412976 -0.019934723 0.13093865 0.005522035 -0.015361122 0.4585827
-0.03840499 0.2794989 -0.4571118 -0.0024758335 -0.0008026854 0.36701065 -0.6704135 -0.018717708
-0.5455971 0.05025881 -0.30354118 -0.042096302 -0.01909386 -0.006990763 0.013398783 -0.2378371
0.7105942 0.09766864 -0.011308899 -0.006693822 0.020002007 0.005407393 0.09051359 0.5683992
-0.022898436 0.18420687 -0.012448928 -0.019204877 0.21239689 0.048131578 -0.027567282 0.25389025
-0.024471428 0.7802096 0.18133095 -5.3928365e-05 -0.028950242 0.32639262 0.02658259 0.02226332
-0.015733821 0.009068675 -0.06845799 -0.036946718 -0.01768207 -0.01563724 0.085438855 0.08677388
-1.2034686 -0.1592564 0.0018805384 -0.026548557 0.023786 -0.035575196 0.3655945 -0.01206708
0.55129117 0.47711644 0.011009103 -0.013655868 -0.58612573 -0.0053171776 0.0077198218 0.023034763
0.06205196 -0.18710846 -0.017367525 -0.24928296 -0.034333345 0.5874006 -0.056254458 0.8713536
-0.056640144 -0.0142160375 0.008486201 0.21847208 -0.035044994 -0.039238837 -0.03251874 -0.8234465
0.48493597 0.012468779 0.005997618 0.28481188 0.0015564621 0.38735786 0.028301638 -0.02988289
-0.6639629 0.42446458 -0.29138154 -0.0073945285 -0.0060089105 -0.00897783 0.22089712 -0.5792358
-0.05313086 -0.034735117 0.13338268 0.003047416 -0.011910083 0.014354421 -1.0426035 0.0014591216

fc2.weight f4 [64, 128]
00000000: b8c6 b13d 28c2 313d a84e 96bd 9625 96bd
00000010: 464e 53be be40 483f a547 023f ce4e 783d
00000020: 956c 8a3c 28e4 0c3f e042 e8bc a85c 4d3d
00000030: beab 573d 47ae a83e 800a bdbd f731 b53e
00000040: 202d 883c 5e6c d23d 772a 353f f5fc a9bd
00000050: a612 20be 75da 923d 0dce 7bbd 47f9 633f
00000060: e996 573d abff 123e 59bf 2d3d 2928 e4bc
00000070: c6f1 efba 5262 723e d616 0c3f 1c78 debb
00000080: 971c c63d 2d42 9b3e 5dbf 0f3e 75af a23d
00000090: e3b5 163a 6ebe 3ebd 1056 aa3d c080 603e
000000a0: d0be 023f a42c 6d3e 536b 293e 39a3 42bc
000000b0: bb7e 8fbd 99c5 c13c beed aa3e cdc3 2d3f
000000c0: b0ee 2e3d 0827 fb3d b327 b23d c87e 873a
000000d0: 1537 883e 1818 74bd 9612 98bd d71d 063f
000000e0: 247f b23d da7a 0e3d 16ae c73d d94e 6b3d
000000f0: 8f1a 7a3d c906 5f3f e678 b73e bcc9 25bc
00000100: 456b 91bc c058 eebc 91e4 d13d f391 113d
00000110: 6785 4d3d dbfc 57bd 8e3b 003e 72d7 e13c
00000120: 419d cbbd 4a4c 883c dd20 b53d f986 f63c
00000130: a6b7 5fbd ef45 25bd 1602 803e 13db f93c
00000140: c7e1 2f3f d59b 1b3e ceca 863d 94e7 d93b
00000150: b4bb c6be 0dc2 993d 1159 c93a 1921 853d
00000160: 6c5e 283f e2dc 2f3e 9ed0 3f3d ae48 c4bd
00000170: 6009 c9bc c4a2 2e3f 4649 3e3d a811 7c3e
00000180: 4961 b73c 37b9 083d 1eb2 89bd a2e2 993e
00000190: e5e5 9b3d 1695 ff3c b307 3bbc b3d8 3c3e
000001a0: bc61 323f 4ebe 823d f59b f5bc 57ae 4d3e
000001b0: ae09 b1bd ae84 0f3e 9d23 2d3d 83a4 913d
000001c0: 0a0c 87be e59c c03e 5886 1e3e b3b3 0c3d
000001d0: 15f6 97bc 2cf6 cdbc 00aa bc3e 51b6 e5be
000001e0: 2f6c 9dbd b8a1 b1bd 2fb9 943d 29fb a33b
000001f0: f3b6 babb 8b5f eabb 0f55 50bc 899a 813d
00000200: 36c3 afbd 401f 82bd cd65 1ebd 3a86 af3d
00000210: c9e0 823e 77e1 ce3e 60c3 cc3d fc05 65bd
00000220: 1656 bc3c 433e 0f3e d6fb 0bbd 56f1 ecbc
00000230: 946b 5cbd dd3e f93d ea4d 5c3d 5585 0a3e
00000240: 38f9 88be 5f0d 033d 0505 e13e 3bf7 523c
00000250: 8b8b f4bd 4a84 62bd 93f0 09bd e9ab 3a3f
00000260: ef5b 57bc 4129 353e 5c18 f0bd c967 98bc
00000270: 59c6 33bd 93e4 7f3e ab4b 5abd 0095 2f3d
00000280: 489f 7bbe 02a0 233e aa95 7fbd 255e 14bc
00000290: 4b52 fe3c 3fde 62bb f193 ab3c 47ae 63be
000002a0: 87b8 fc3e 0a47 783e 2852 9c3e a748 a43c
000002b0: f830 c23c b8c0 b1bd e658 083e d66b 483e
000002c0: 7653 1e3d 2ce8 113e e132 6f3c e4b8 b439
000002d0: e743 b43d a0c1 5ebd 97e7 86bd a1ad f23e
000002e0: d2fa 52bd 3d85 643d 6b54 b63e 173a a4bc
000002f0: bbca bd3d 533c 0d3f a596 3ebe 6e1a 903d
00000300: 3ba0 1aba a264 bf3c 5a6c c33b 50c1 783d
00000310: bf97 6d3d 9f12 bbbd d681 8f3e f0c9 c03e
00000320: c18c b2be d5fb b53d 17a6 2f3d d64b 7e3c
00000330: 794b 2f3c ce16 3f3d 3457 6e3e 340f 883d
00000340: 94e5 313f 5a0c a73d 6f10 003d b7b1 4f3d
00000350: a733 edbe f412 7b3d 046f a3bd 8dea 32bd
00000360: e486 483e 5a60 d13d 5e9c 943d 2819 8a3d
00000370: 83f6 433c eb2e 543e aeba f8bc d7b3 c43d
00000380: d657 8dbd 399a 71bd 9535 7d3d 3413 1e3f
00000390: 9a57 c73d fe97 853d 554e 4fbc e63d 423e
000003a0: a6a0 a63e 5980 4ebd 5a4c 28bd 5f2b 863e
000003b0: d1b0 613d 3123 a33d 65f0 f83d b86f 9d3c
000003c0: 5c3b 223a 8edc 9e3e ba5f 383b 9f37 29bd
000003d0: 29a1 9d3d 1cdc 51bd 447c bd3d f846 15bf
000003e0: 3d95 b4bc a14a 3dbd 2e7e 933d eda1 81bd
000003f0: a1e7 93bc 8dc6 f03c 6a8a 5dbe 2058 3bbd
0.08680481 0.043398052 -0.07339221 -0.07331388 -0.20635328 0.7822379 0.5089057 0.06062203
0.01689748 0.5503564 -0.028352201 0.050137192 0.05265402 0.32945463 -0.09230518 0.35389683
0.01662308 0.10274576 0.7076792 -0.08300201 -0.15632114 0.071705736 -0.061475802 0.8905224
0.052634154 0.14355342 0.04241881 -0.027851181 -0.0018306307 0.23670319 0.54722345 -0.0067892205
0.09673422 0.30323926 0.14037843 0.07943622 0.0005749149 -0.046568327 0.08317196 0.21924114
0.51072407 0.2316156 0.16544847 -0.011879736 -0.07006594 0.023653792 0.33384508 0.67876893
0.0427081 0.12263304 0.08698978 0.0010337466 0.26604524 -0.05959329 -0.0742542 0.5238928
0.087156564 0.03478513 0.09750001 0.05744824 0.061060484 0.8711973 0.35834426 -0.010118898
-0.017751345 -0.029095054 0.10248674 0.03553958 0.05017605 -0.052731376 0.12522718 0.027568553
-0.09942103 0.01663794 0.08844159 0.030093657 -0.0546185 -0.040349897 0.2500159 0.03049997
0.68703884 0.15196164 0.06581651 0.0066499207 -0.3881508 0.075077154 0.0015361627 0.065004535
0.65769076 0.17174104 0.046829812 -0.09584175 -0.024540603 0.6821711 0.046456598 0.2461611
0.022385256 0.03337976 -0.06723426 0.3005572 0.07612208 0.03119902 -0.01141541 0.18442039
0.6968038 0.06383954 -0.029981593 0.20086037 -0.086444244 0.14015457 0.04227029 0.07111456
-0.26376373 0.376197 0.15480936 0.034351062 -0.018549958 -0.025141798 0.3684845 -0.4486566
-0.0768665 -0.086734235 0.072618835 0.005004306 -0.005698079 -0.007152503 -0.012715592 0.06328303
-0.085821554 -0.06353617 -0.038671304 0.085705236 0.25562122 0.4040639 0.09998202 -0.05591391
0.022990268 0.13988595 -0.034175716 -0.028923672 -0.053813532 0.12170193 0.053785242 0.13527425
-0.2675264 0.031995174 0.43949142 0.012876327 -0.11940678 -0.055301942 -0.033676695 0.72918564
-0.013144477 0.17691518 -0.11723396 -0.018604176 -0.04389033 0.24989538 -0.05329482 0.042866707
-0.2457248 0.15979007 -0.06239859 -0.009055649 0.0310451 -0.0034617332 0.020944567 -0.2223445
0.49359533 0.24245849 0.3053143 0.020054175 0.02370499 -0.08679336 0.13315162 0.19572386
0.038653813 0.14248723 0.014599533 0.0003447003 0.08802014 -0.054383874 -0.06587141 0.47398093
-0.051508732 0.05579113 0.3561128 -0.02004723 0.092671834 0.5517017 -0.18612154 0.07036291
-0.000589851 0.023363415 0.0059638442 0.060731232 0.058006044 -0.09134411 0.28028744 0.37654066
-0.34873012 0.08885924 0.042883005 0.01552101 0.010699146 0.046652608 0.23275453 0.06643525
0.69490933 0.08156653 0.031265672 0.05070659 -0.4632847 0.061297372 -0.07980159 -0.043680716
0.19582707 0.10223456 0.07256387 0.067430794 0.011960628 0.20721023 -0.030362453 0.09604614
-0.06901519 -0.05898497 0.061818678 0.6174805 0.097335055 0.06523131 -0.012652953 0.18968925
0.3254444 -0.05041537 -0.04108844 0.26204965 0.055100266 0.079656966 0.121552266 0.01921831
0.0006188655 0.31027645 0.002813323 -0.04131281 0.076967545 -0.051235303 0.092522174 -0.58311415
-0.022043819 -0.04621375 0.07201801 -0.06329713 -0.018054785 0.029391551 -0.21634832 -0.04573834

fc2.bias f4 [64]
00000000: d6a9 2c3f 3dc5 e83e 4e4c bebe 1525 123e
00000010: fa46 9cbe 7733 d63e d21f b63e e529 41be
00000020: d9a0 34be 5758 43be ff43 6a3f c353 393d
00000030: 7933 99be b7d5 5cbe 1c3f 04bf d357 1f3e
00000040: a629 7e3e a995 97bf 2668 a0be 24d1 6cbe
00000050: 99af b1be d68f c6be 8dbd 65be 8334 1b3d
00000060: 982f 05bf 058d 00bc d548 073f 81cf 2d3f
00000070: 211c 48bf b361 c5bd a289 d93d 8215 47be
00000080: 2fc6 b5be 6b75 593f 8a0f 9a3e 2534 0ebf
00000090: fa81 b23e 5336 823d 6497 8abe 16fc 8dbe
000000a0: 2d2d 6fbf d9d8 2dbf a3b4 5bbf 5020 00bf
000000b0: 6560 2cbe cbf0 503f fbc1 153f 0aaa 173d
000000c0: 5022 b23e 7646 14be 3af9 99be c2c1 223f
000000d0: 17a6 133e 0c31 983b 6709 46bf 4caa f4bd
000000e0: 4b5d cf3d 6285 febe 7b33 6fbc d928 1e3f
000000f0: 1c7b 62be e5ce 8fbd 04d9 bd3e 6e7f 953d
0.6744665 0.4546298 -0.3716759 0.14271958 -0.305229 0.4183614 0.35571152 -0.18863638
-0.17639484 -0.19076668 0.91510004 0.045245897 -0.29922083 -0.215659 -0.516588 0.15560846
0.24820575 -1.1842548 -0.3132946 -0.23126656 -0.34704283 -0.38781613 -0.22435589 0.037891876
-0.5202575 -0.007846122 0.5284551 0.6789475 -0.7816792 -0.09637775 0.106219545 -0.19441798
-0.35502765 0.8494479 0.3008998 -0.55548316 0.3486479 0.06358018 -0.27068627 -0.2773139
-0.9342831 -0.6790901 -0.85822505 -0.50049305 -0.16833647 0.8161742 0.58499116 0.037027396
0.34791803 -0.14480004 -0.30072957 0.635769 0.14418827 0.0046445187 -0.77358097 -0.11946544
0.10125216 -0.49711138 -0.014599676 0.6178108 -0.22117275 -0.07021884 0.37079632 0.07299696

fc3.weight f4 [10, 64]
00000000: 028e 98be 3cb1 3bbe 8dfa b2bf a205 bbbf
00000010: 2616 dbbd 5ec2 d0bf fe75 dfbe 3594 27bf
00000020: e469 14bf 2f19 01bf c68c 59bf 5924 08be
00000030: ee60 8ebf f131 55bf 3e50 04bf 94f0 c2bd
00000040: caea 14bf 1601 4ebf 8ae2 93bf 128b 64bf
00000050: cc12 0cbf b5cc 2bbf 1c13 39bf 7d0c 9dbf
00000060: a107 c8bf e06c c6be 1bda dbbe 9d18 66be
00000070: fb19 32bf 0cb6 57bf ac7d 5c3e 3ee8 05be
00000080: a469 84be cca5 2a3d 37f2 6abf 11fd 3bbf
00000090: e87a 9abe cfff 42bf fe82 91bf 9129 42bf
000000a0: fea4 72bf 5448 1bc0 8ccc c2bf cb9c 31be
000000b0: 049a 1dbf 4fab 51be 70b9 9bbd 4e99 673e
000000c0: 061d 08bf f51f 44c0 3467 9ebf e9a7 dbbe
000000d0: 7785 00bf bf93 87bf 32d6 80bf 8c78 fabd
000000e0: 89df 07c0 ad1e 90bf 5c36 e5bd 01e6 223e
000000f0: 8ba2 2cbf b3be 93be e2db d5be 7071 bdbf
00000100: 9d7c acbf 0ebb 95bf 34f2 653e cdf1 d6bf
00000110: df3d 1d3d 2c69 45c0 c936 48bf 5a8e 34bf
00000120: 58ba 80bf f125 12bf 2ba3 a7be c159 70bf
00000130: db77 e93e 88e1 99bf c99d c3bf 1c00 b1bf
00000140: 72b6 c7bd 25fd 44bf a8aa 4bbf 1e32 e3bf
00000150: 780d cfbf 7742 e0be 6a2d 6abe 18e4 71bf
00000160: fc8d 92be 47d1 3dbf b2f5 88bf 2af5 d3bf
00000170: 8af0 f9bd 7699 1fc0 baf9 89bf 07df 18c0
00000180: 02cb 30bf 7fb9 3fbe d973 50bf fa97 38bf
00000190: 9ea9 57c0 6523 01c0 e042 bfbf e823 cabf
000001a0: 0825 e8bf d798 e5bd 956f abbf 5a41 37c0
000001b0: f882 99bf f6a8 d2be c5e2 96bf 945a 62be
000001c0: 836b 33bf a343 37c0 fb60 3cbe 059e 85bf
000001d0: 0efd 6ac0 ca75 0dc0 07ca a6bf 9fc2 f9bd
000001e0: a723 afbf 16f1 aabf 8680 84bf def6 3cbe
000001f0: 15c4 73be 5521 ebbd bf5e f9bc 9b5c 72bf
00000200: e979 81bf cd7b 84bf 5b5e c8bf 90cd e6bf
00000210: c76b 5fbe 7c43 a1bf 5528 493c 4216 b9bf
00000220: 6b08 dcbe 0215 8bbe 9ac0 4ebf 3619 16bd
00000230: 5a3b a3bf 6d0a dbbf 1a7d 88be a942 b3bf
00000240: 40a7 10be 2b18 acbe fcfe 41bf 4a8e 16c0
00000250: 5b0c 16be 1a4e bd3c 1acd a4bf b9c7 11bc
00000260: d96b e5be 6331 66bf 3c11 8dbf 5356 23bf
00000270: 4eb9 90be 71f7 30bf fc3d ccbe 91b4 2cbf
00000280: 9430 cebe d2a1 2cbf 99ee e2bf ee9c 53bf
00000290: be6d a0bf fc40 93bf 096a ffbe 6dbb 02be
000002a0: f779 d4bf c0bd 0bc0 317c 2ec0 e306 b0bf
000002b0: 97d3 993e e097 26be c1dc eebd 6758 8abf
000002c0: f108 84bf b9cb 19c0 1cb7 423e d245 bfbe
000002d0: 4e68 83bf 2d45 913d a834 8abf 8247 10bd
000002e0: 8f96 0cc0 0e8e 10c0 5771 14bf 625d 13bf
000002f0: 5195 57be d80f 88be 8a65 c3bf 302d 20bf
00000300: 5614 49be 7319 01be 3bd5 64bf 8d38 a4bf
00000310: 07d7 753d 3b39 0cc0 de46 aabf 6684 babe
00000320: f348 65be 5f42 303e 8f1b 69be eadb 56bd
00000330: 6bac 2abf 02a1 dcbc c2b5 58bf 3574 6fbf
00000340: fd09 93bd bc53 10bf c147 a1bf 3c11 2dbf
00000350: 7cc7 16bf 9d43 17be 5605 88bf 2b6c d0bf
00000360: a529 c8be bb96 e8be 10e5 9dbe c10e 70bf
00000370: a83c b9be 7267 a1bf 0f25 e1bf 879f 08c0
00000380: acf1 a4be 321a 43be aad9 e33c 4024 07bf
00000390: 59af 9dbf b4d6 debf cb2e a9bf 772c 63bf
000003a0: 70d4 13c0 997c 21bf 83dd 87bf 74c3 60bf
000003b0: 561a 95be 1f9b 50bf 074b 1abf 3f44 05bf
000003c0: 5dbf 83be cd32 4ac0 39c3 d9be e417 e0be
000003d0: 2cb6 afbf 9b13 edbf 107f 8dbf 4737 59be
000003e0: a4b3 78bf ee5b f63c b9b2 64bf 2878 febe
000003f0: 6631 53be 5abc 0abe 805b 1ebe 94bb bdbf
-0.29795843 -0.18329328 -1.3982712 -1.4611094 -0.10697584 -1.6309316 -0.43644708 -0.6546052
-0.57974076 -0.5042905 -0.8498043 -0.13295116 -1.112333 -0.8327933 -0.5168494 -0.09518543
-0.5817076 -0.80470407 -1.1553509 -0.89274704 -0.5471618 -0.67109233 -0.72294784 -1.2269436
-1.5627328 -0.3875494 -0.4293984 -0.22470327 -0.69570893 -0.84262156 0.21532315 -0.13076875
-0.25861847 0.041662022 -0.9177584 -0.73433024 -0.30171895 -0.7617158 -1.1368101 -0.75844675
-0.9478301 -2.4262896 -1.5218673 -0.17344968 -0.61563134 -0.20475505 -0.07603729 0.22617075
-0.53169286 -3.0644505 -1.2375245 -0.42901543 -0.5020365 -1.0591964 -1.0065367 -0.12230024
-2.1230185 -1.1259362 -0.11192009 0.15908052 -0.6743552 -0.2885643 -0.4176932 -1.4800243
-1.3475529 -1.169771 0.22455674 -1.6792542 0.038389083 -3.0845442 -0.78208596 -0.7052971
-1.0056868 -0.57089144 -0.32741675 -0.93886954 0.45599255 -1.2021952 -1.5282527 -1.3828158
-0.097515956 -0.7694877 -0.79557276 -1.774967 -1.6175985 -0.4380071 -0.22868887 -0.9448867
-0.2862395 -0.74147457 -1.069998 -1.6559193 -0.12204082 -2.4937415 -1.0779335 -2.3886125
-0.69059765 -0.18723105 -0.8142677 -0.721069 -3.3697276 -2.0177853 -1.4942284 -1.5792208
-1.8136301 -0.112107925 -1.3393427 -2.8633637 -1.1993093 -0.41144532 -1.1787955 -0.22104865
-0.70085925 -2.8635032 -0.1839637 -1.0438849 -3.6716952 -2.2103143 -1.3030404 -0.12195324
-1.3682755 -1.3354824 -1.0351722 -0.18453547 -0.23805268 -0.11480967 -0.030440686 -0.94672555
-1.0115329 -1.0350281 -1.5653795 -1.8031483 -0.21818458 -1.259872 0.012277682 -1.4459918
-0.42975172 -0.27164465 -0.80762637 -0.036645137 -1.2752488 -1.7112557 -0.26657945 -1.4004718
-0.14126301 -0.3361219 -0.757797 -2.3524346 -0.1465315 0.02310853 -1.2875092 -0.008897715
-0.44808844 -0.8991911 -1.1020885 -0.63803595 -0.28266376 -0.69127566 -0.3989104 -0.6746302
-0.40271437 -0.6743442 -1.7729064 -0.8266133 -1.2533491 -1.1504207 -0.49885586 -0.1276681
-1.6599721 -2.1834564 -2.72633 -1.3752102 0.30044243 -0.16268873 -0.11663199 -1.0808228
-1.0315229 -2.4030592 0.19015163 -0.37357956 -1.0266206 0.07093272 -1.079732 -0.035224445
-2.1966894 -2.2586703 -0.5798544 -0.57564366 -0.21053053 -0.26574588 -1.5265362 -0.6256895
-0.19636664 -0.12607364 -0.89387864 -1.2829758 0.06001952 -2.190993 -1.3302877 -0.36429137
-0.22391109 0.17212819 -0.22764419 -0.05245582 -0.6666934 -0.026932243 -0.8465234 -0.9353669
-0.071796395 -0.5637777 -1.2600023 -0.6760442 -0.5889814 -0.14771886 -1.0626628 -1.628301
-0.39094272 -0.45427498 -0.30838823 -0.9377251 -0.3617909 -1.2609694 -1.7589434 -2.1347368
-0.3221563 -0.19052961 0.027813751 -0.5278969 -1.2319137 -1.7409272 -1.3217405 -0.8873972
-2.3098412 -0.63080746 -1.0614475 -0.8779824 -0.29121655 -0.81486696 -0.6027073 -0.5205726
-0.25731936 -3.1593506 -0.42531756 -0.43768227 -1.372747 -1.8521608 -1.1054401 -0.21212493
-0.9714911 0.030073132 -0.8933521 -0.49701047 -0.20624313 -0.13548413 -0.15464592 -1.4822869

fc3.bias f4 [10]
00000000: 48f2 103e 594f dabe 278a b13e 5f35 383f
00000010: 13cd 96bf bd69 2d3f 0306 b43d a1c7 0b3f
00000020: 84d6 97be 8388 d6bf
0.14154923 -0.42638662 0.34675714 0.7195644 -1.1781334 0.6773947 0.08790209 0.54601485
-0.2965585 -1.676041
